saved_model/assist2015_PKT_qid_saved_model_new_42_0_4_0.001_0_1_2_2_False_0.3_0.5_0.5_0.5_GRU_64/qid_model.ckpt (torch, 19801 bytes, 23 tensors)

model.interaction_emb.weight f4 [200, 4]
000000 82 21 1d 40 a7 40 91 3f 1b 10 c2 3f 64 62 f0 bf
       2.4551702 1.1347855 1.5161165 -1.8780026
000010 63 33 9f 3f ad 2b 83 3f 9d cd 3e 3f 31 d5 79 bf
       1.2437557 1.0247704 0.7453249 -0.9759093
000020 9f 99 25 3f 42 e0 a1 3f f0 35 3d 3f 44 0f 1e bf
       0.6468753 1.2646563 0.7391043 -0.61742043
000030 9e b9 b5 3f 39 a2 9d 3f 4f f4 30 bf d0 74 91 bf
       1.4197271 1.2315131 -0.69122785 -1.1363773
000040 bb 41 87 3f 02 7d ad 3f a0 73 f5 3e bb 85 b1 be
       1.0566934 1.3553774 0.47939777 -0.3467234
000050 1a b8 8b 3f a3 69 93 3f cc c9 d0 3f 36 00 32 bf
       1.0915558 1.1516613 1.6311584 -0.6953157
000060 8a 29 0b 3f e0 51 d7 3f 5f 83 21 3f 35 d0 76 3c
       0.5436026 1.6821861 0.6309108 0.015064289
000070 dc f2 15 40 0b 93 7a 3f 7a 22 fb 3f 29 80 fa bf
       2.342948 0.9788062 1.9619896 -1.9570361
000080 5d 71 c4 3e 36 21 6e 3f 40 fb 62 3f 13 24 e0 40
       0.3836774 0.93019426 0.8866463 7.0044036
000090 71 25 13 40 95 1f 5b 3f 0c e8 f4 3f 23 c9 fa bf
       2.2991602 0.85595065 1.9133315 -1.9592632
0000a0 29 6a 0c 40 f0 37 6a 3f c1 78 0c 40 13 a7 11 c0
       2.1939795 0.91491604 2.1948702 -2.2758224
0000b0 ca ae 06 3f 79 ba e1 3f 17 97 f6 3d c8 7c 1a bf
       0.52610457 1.7635032 0.12040537 -0.6034665
0000c0 79 ae 8e 3f 5a 21 9e 3f 37 b0 94 3f f5 09 80 bf
       1.1146995 1.2353928 1.1616277 -1.0003039
0000d0 b6 c7 80 3f 90 4e 8e 3f e6 f5 53 3f 4a eb 5b bf
       1.0060947 1.1117725 0.82797086 -0.859059
0000e0 28 36 5f 3f 3d 10 ae 3f 57 f9 8e 3f 1a c1 45 bf
       0.8719201 1.3598706 1.1169842 -0.77247775
0000f0 57 c6 31 3f 9c 1f 01 40 43 a5 b0 3d 54 d9 a0 be
       0.6944327 2.0175543 0.08625271 -0.31415808
000100 c6 8f 0c 40 6d 6f 80 3f f6 02 21 40 59 23 80 bf
       2.1962752 1.0034004 2.5158057 -1.0010787
000110 aa 58 e3 3f 20 e8 a8 3f 3b 84 29 bf f7 9e 97 bf
       1.7761433 1.3195839 -0.6621739 -1.1845387
000120 a7 11 65 3e 1f 18 de 3e ac 8b ca 3e 69 0a ca bd
       0.22370015 0.43377778 0.39559686 -0.09865267
000130 a6 fd 65 3f 15 2e 57 3f 23 e3 aa bf af e5 47 bf
       0.8984016 0.8405469 -1.3350567 -0.78084844
000140 52 7d 01 3f fb 0d 17 3f fe da a0 bc 5d 79 dd be
       0.5058185 0.5900571 -0.019635674 -0.43256655
000150 7d 67 89 3f 80 ec a2 3f ca d8 5e 3f 81 a3 24 bf
       1.0734707 1.2728424 0.87049544 -0.6431199
000160 99 e2 10 3f 58 ab 45 3f 4c f2 50 be ee d9 a5 be
       0.5659576 0.77214575 -0.20404929 -0.3239283
000170 7f 4e bb 3e 59 ef 9d 3f 8e 0b ac 3f 75 7f 25 bf
       0.36583325 1.2338668 1.3441026 -0.6464761
000180 4d 9c 45 3f 04 b8 96 3f 82 1b ad 3f 05 59 87 bf
       0.7719162 1.1774907 1.352402 -1.0574042
000190 8d 36 01 3e f3 9f 81 3d 43 67 20 3e 3e 23 c1 bd
       0.12618466 0.06329336 0.15664391 -0.0943055
0001a0 d8 d9 86 3f c3 35 bc 3f c0 69 9e 3f 2d bd 29 bf
       1.0535231 1.4703907 1.2376022 -0.66304284
0001b0 d6 88 ae 3e 37 8c ed 3e 92 32 c6 3e 43 98 75 be
       0.34088773 0.46396038 0.38710457 -0.23983864
0001c0 e9 a1 44 3f b4 49 a5 3f 9f 11 7c 3f 8d 29 11 bf
       0.76809555 1.2913117 0.9846439 -0.56704026
0001d0 5d a5 c0 3d ab ac b4 3d 9c 79 6d be 9a e1 ef bc
       0.094065405 0.08821996 -0.23190922 -0.02928238
0001e0 84 d7 89 3e 11 be 94 3e 56 17 ce 3e 24 d5 e3 bd
       0.26922238 0.2905126 0.4025218 -0.11124638
0001f0 dd c2 8d 3f eb 80 85 3f 20 ab 80 3f 50 1d 24 bf
       1.1075093 1.0429968 1.0052223 -0.6410723
000200 31 b4 91 3f 36 4a b4 3f 6c 9d 1a 3f 2a 52 0f bf
       1.1383115 1.4085147 0.60396457 -0.5598475
000210 f8 f7 2f 3f 4e 6a cf 3f d5 bf 41 3f 72 2e ae be
       0.68737745 1.6204317 0.7568334 -0.3401981
000220 7e 62 97 3f 11 b8 ce 3f 5d 38 83 3e 11 1c e6 be
       1.1826932 1.6149923 0.2562894 -0.44943288
000230 4e 6a 93 3f a1 d2 a9 3f 18 ce 6d 3f 96 20 7d bf
       1.1516817 1.3267404 0.928926 -0.9887785
000240 07 c5 ad 3f b7 a3 b3 3f 96 de e9 3f b8 ce 91 bf
       1.3575753 1.4034337 1.8271053 -1.139121
000250 ca de 34 40 80 a7 a1 3f c6 41 1c be 88 6a f2 bf
       2.826098 1.2629242 -0.15259466 -1.8938761
000260 be 9b 8b bf d9 d9 23 bf 24 e2 59 bf 4f 9b 8f 3f
       -1.0906904 -0.64004284 -0.8511069 1.1219271
000270 45 12 29 bf c6 f2 88 3f 2e c4 1a c0 24 8f a7 be
       -0.660435 1.0699089 -2.4182239 -0.32726395
000280 85 d7 86 3d 34 4a 44 3e 9b 38 0c bd 13 0d 82 be
       0.06584076 0.19168931 -0.03423367 -0.254006
000290 43 eb 50 3e eb 39 0a 3e 7f b3 9a 3e 0b a3 3c be
       0.20402245 0.13498656 0.3021507 -0.18421571
0002a0 7d 26 a7 3e 9a 26 d6 3f e3 f1 be 3f 5c fa 1a bf
       0.32646552 1.673053 1.4917568 -0.6053827
0002b0 fe 98 b1 3f 2a 68 89 3f ad d8 3b 40 c7 e2 9c bf
       1.3874815 1.0734913 2.9350998 -1.2256707
0002c0 a4 04 f8 3f 43 da a2 3f 76 3b a1 3f e5 37 e1 bf
       1.9376416 1.2722858 1.2596271 -1.7595183
0002d0 57 18 01 40 dc 1e cc 3f 32 fe 8c bf 0c e4 f0 bf
       2.0171106 1.5946918 -1.1015074 -1.8819594
0002e0 c7 5a e5 3d 0b 9a bd be a4 fb 0e c0 3e 0b ac be
       0.11198955 -0.37031588 -2.234109 -0.33602327
0002f0 52 7c 61 3f cd 12 83 3f 61 6c 55 3f cb 08 b6 be
       0.8808032 1.0240113 0.833685 -0.35553584
000300 01 52 dc 3f a4 f4 09 be 5c db ae 3f 17 2d 45 bf
       1.7212526 -0.13472229 1.3660693 -0.77021927
000310 63 71 c8 3e 43 1b 9e 3f 15 9b 85 3f 4b 6b 5a be
       0.39149007 1.235207 1.0437952 -0.21329992
000320 4b 4a 92 3e 19 ea 05 40 da b3 be 3e 2c ea 94 be
       0.28572306 2.0924132 0.3724659 -0.2908491
000330 c9 f0 b1 3e 36 be b8 3e d6 fc c2 3e 1c 85 92 bd
       0.34754017 0.3608262 0.38083524 -0.07154295
000340 24 f9 37 3f 0b 0e 98 3f 2e 50 1b 3f ac e4 26 bf
       0.71864533 1.1879286 0.6066922 -0.65192676
000350 ac c1 b3 3f 52 90 ab 3f a6 04 30 3f 2a 29 b3 bf
       1.4043479 1.3403418 0.6875709 -1.3996937
000360 2c 20 1b 40 59 98 f1 3f ae f2 2d c0 61 1e ae bf
       2.4238386 1.8874618 -2.717937 -1.3603021
000370 95 92 2f 3f 45 ad 33 3f ef 89 73 3f 99 9e 76 3e
       0.6858304 0.70186263 0.95132345 0.24083938
000380 bc de 42 3f 48 44 c1 3f 72 96 62 3f 65 cc 3d bf
       0.76121116 1.5098963 0.8851081 -0.74140006
000390 d6 89 89 3f 02 98 9c 3f 67 6d ae 3f fa 03 ea be
       1.0745189 1.2233889 1.3627137 -0.4570616
0003a0 2c 03 99 3f 63 79 a5 3f 9b 53 95 bf 61 19 a3 bf
       1.1954093 1.2927669 -1.1666139 -1.274212
0003b0 c3 3d 42 3f 3e b9 ba 3f 0e 49 3c 3f ae a8 f3 be
       0.7587549 1.4587781 0.7354897 -0.4758963
0003c0 f8 9c d4 3e 3d 94 b3 3f c3 e9 27 3f da 00 a5 be
       0.41526008 1.4029614 0.6559107 -0.32227212
0003d0 eb 41 8d 3f 2e 7c a1 3f 0a 13 90 3f 26 b0 f5 be
       1.1035742 1.2616022 1.125581 -0.47985953
0003e0 49 b6 35 40 96 a8 65 3f 7e 61 0f 40 ce d3 d0 bf
       2.8392508 0.89710367 2.2403255 -1.6314638
0003f0 9a cb 06 40 f8 32 63 3f ca 96 fd 3f 12 cf d5 bf
       2.1061769 0.8874965 1.9811642 -1.6703818

model.rnn.weight_ih_l0 f4 [12, 4]
000000 76 84 c7 bd df 77 f5 3d 78 fd 24 bf 8e fd f8 3e
       -0.09742062 0.11985754 -0.6444926 0.48630947
000010 93 77 e9 bd d8 9e c3 3d 05 e3 ee 3e 4c 2d 4f be
       -0.1139976 0.095517814 0.46657577 -0.20232123
000020 53 71 30 3e 06 38 ae bd 5f c2 68 3f c9 04 6f be
       0.1723073 -0.085067794 0.90921587 -0.23341669
000030 12 8f 0c 40 af 5a 49 40 03 47 8b 3f 6b 16 17 c0
       2.1962323 3.14616 1.0881046 -2.3607433
000040 a3 b2 24 be e2 09 d5 3d ca 93 b4 be f4 12 93 3e
       -0.1608377 0.104022756 -0.35269004 0.28725398
000050 d4 35 1c be 76 db a4 3e 6e ba 89 be 27 70 81 3e
       -0.15254909 0.32198685 -0.26900047 0.25280878
000060 b6 40 e2 bd 78 a9 07 be ab f8 c4 3d 50 8e ab 3e
       -0.11047499 -0.13248241 0.09617742 0.33507013
000070 f3 82 f9 bc 43 2b 99 be 31 dc 71 bd e4 fc bc 3e
       -0.03045795 -0.2991582 -0.05904788 0.3691169
000080 50 88 26 bf 1f 21 5c bf 37 3e f6 be e4 c7 32 3f
       -0.65051746 -0.8598804 -0.4809434 0.6983626
000090 23 5a dd bd 73 de 83 be 94 31 1b be e0 f6 b0 3d
       -0.10808208 -0.25755653 -0.15155631 0.08640838
0000a0 34 2f d3 3e 4c c9 19 3d 4e f7 80 bd 8b 29 09 bf
       0.4124695 0.037545487 -0.062971696 -0.53579015
0000b0 2f 20 6c 3c 88 47 d2 bd ed 46 24 bd f9 e8 b9 bc
       0.01441197 -0.1026755 -0.040106703 -0.022694098

model.rnn.weight_hh_l0 f4 [12, 4]
000000 18 7a 8b 3f 21 16 b4 3e b9 98 55 3f 5e fd 90 bd
       1.0896635 0.35173133 0.8343616 -0.07079576
000010 52 18 d7 3e f8 70 a0 3f 11 65 23 c0 89 45 f8 be
       0.42010742 1.2534475 -2.5530436 -0.4849055
000020 19 4e 7e 3f 1d e4 dd bd 71 b1 d5 bf 3d 0f 69 3e
       0.9933792 -0.10834525 -1.6694776 0.22759719
000030 31 41 1e 3d 88 a2 19 bd 79 47 fd be 3b a9 25 3d
       0.03863639 -0.037508518 -0.49468592 0.040444594
000040 77 35 65 bf 5e b5 33 40 3f fa 12 bf de da ab 3d
       -0.89534706 2.8079448 -0.57413095 0.08391355
000050 95 9a c2 be d4 2a db 3f f6 ee 27 bd 0f 5e 8a be
       -0.38008562 1.7122445 -0.040999375 -0.27024886
000060 95 09 bf 3a d1 6b a9 3f 75 b1 68 bf ef 9e 6a bf
       0.0014574999 1.3236028 -0.9089578 -0.91648763
000070 55 d2 b9 3e 04 88 b7 3f be fe 83 bf ac 61 a9 be
       0.36293283 1.4338384 -1.0312116 -0.3308233
000080 1b da 12 bf fa f3 e2 3e 6e 48 99 bf 38 57 4c 3f
       -0.5736405 0.44326764 -1.1975229 0.79820585
000090 fc cd 23 3f 28 a0 85 3f 16 87 6f bf ff ac 80 bf
       0.6398618 1.0439501 -0.935655 -1.0052794
0000a0 fe 1c a3 bf 6a 54 a3 bf 7c 8b af be 1a f5 63 bd
       -1.2743223 -1.2760136 -0.34286106 -0.05565367
0000b0 92 0f 06 3f 5c 19 63 bf 6f b1 be 3e d1 24 3c 3e
       0.5236751 -0.8871057 0.37244746 0.1837342

model.rnn.bias_ih_l0 f4 [12]
000000 41 2b 22 3e 70 1c ec be 97 e5 92 3e 1f 73 10 bf
       0.15836813 -0.46115446 0.28690788 -0.5642566
000010 e5 b2 d7 3e bd 98 8a 3e a9 c2 68 3f b5 2e 3a be
       0.42128673 0.27069655 0.9092203 -0.1818188
000020 39 b2 b2 bd 45 1f 80 be eb 47 04 be a2 9b 6f be
       -0.087253995 -0.25023857 -0.1291806 -0.23399213

model.rnn.bias_hh_l0 f4 [12]
000000 74 dd 9a 3e d1 2e 09 bf fe 5e ba 3c 97 b3 92 3d
       0.3024708 -0.5358706 0.022750374 0.0716316
000010 89 a4 c1 3e 5d 4f 73 3e f0 52 6f 3f 81 cb c5 be
       0.37820843 0.23760743 0.9348593 -0.38631824
000020 99 58 68 be d1 b6 01 be 5e aa a6 3e 6e a7 3b 3f
       -0.22690047 -0.12667395 0.32551855 0.7330235

model.rnn.weight_ih_l1 f4 [12, 4]
000000 ce f1 7e 3e 36 02 17 3f eb 8d 97 be a5 37 15 bf
       0.24896929 0.5898775 -0.29600462 -0.5828803
000010 70 fe 8b 3e 87 bb e7 3e 7e e2 20 bf 6f 2e df be
       0.27342558 0.4526026 -0.628456 -0.43590114
000020 42 ac 81 40 e1 98 72 40 9c f9 15 c0 7a 84 90 c0
       4.0522776 3.790581 -2.34336 -4.5161715
000030 61 da 87 3f 45 4e 94 3f cf 40 b3 bf f8 95 f3 be
       1.0613519 1.1586386 -1.4004153 -0.47575355
000040 73 0c 79 3e 4b 3c 03 3f 50 32 5c bf f8 53 f5 be
       0.24321155 0.51263875 -0.8601427 -0.47915626
000050 ef b0 f9 be 1d d6 17 bf 7f 80 14 3f ca 55 59 3f
       -0.48767802 -0.59311086 0.5800857 0.8489653
000060 16 fe 0a bf 5c a5 c9 be 07 4a 61 3e f7 1a 74 3f
       -0.54293954 -0.39383972 0.22000895 0.95353645
000070 9a eb aa bd 2a 74 34 3d 85 7d 23 be f0 00 a9 3d
       -0.08345719 0.044056095 -0.1596585 0.08252132
000080 91 69 aa 3e d6 a7 d2 3e 39 1e c6 be cb 36 1c bf
       0.33283666 0.41143674 -0.38694933 -0.6102111
000090 91 d1 f5 bd 6a f4 26 be cd f5 64 3e ab 3c 76 3e
       -0.12002862 -0.16304174 0.2235939 0.2404658
0000a0 4d 8f 7e 3e 5c 4c 83 3e 51 f8 a5 be bc d9 d1 be
       0.24859352 0.25644195 -0.32416013 -0.4098643
0000b0 93 e7 d0 be e2 1f bc be 24 0e 09 3f ad 0b 5d 3f
       -0.40801677 -0.36743075 0.535372 0.8634594

model.rnn.weight_hh_l1 f4 [12, 4]
000000 6c b9 f9 3e f4 be bd 3f 79 c0 45 bf b6 6b 81 bd
       0.48774278 1.4823899 -0.77246815 -0.06319372
000010 d9 f7 e0 be af 84 fe 3f 31 fa 80 3e 9e 3b a5 bf
       -0.43939093 1.9884242 0.2519088 -1.2908819
000020 9d 44 68 bd ab 80 b8 3f 9b 90 11 3f 42 2d ad be
       -0.05670606 1.4414266 0.56861275 -0.3382359
000030 33 2b 07 3f 17 b0 a4 3e b9 42 8d bf 92 95 ee 3f
       0.5280029 0.32165596 -1.1035987 1.8639395
000040 f4 d2 64 bf c0 d4 11 3e 57 35 fc bd 22 72 31 c0
       -0.8938439 0.14241314 -0.12314861 -2.772591
000050 74 39 06 c0 b0 10 a2 3e 39 f0 63 c0 1b 88 7b 40
       -2.0972567 0.31653357 -3.561537 3.9301822
000060 4d 1b d7 3d 24 f0 4f be b0 cb 0d bf c6 95 d0 be
       0.10503254 -0.2030645 -0.5538893 -0.40739268
000070 06 38 e7 3e eb 29 a7 3e 65 85 99 3e 36 db 14 bf
       0.4515993 0.32649168 0.29984584 -0.5814699
000080 1a 07 36 40 00 48 2e 3e 47 3c 92 be b4 61 35 3f
       2.8441834 0.17019653 -0.28561613 0.7085221
000090 cf 71 06 c0 58 64 b0 3e 58 5c 88 be 57 e9 d9 3d
       -2.1006963 0.34451556 -0.26632953 0.10640209
0000a0 9e 35 c6 3f 51 ff 28 bf 59 32 cd 3e 01 1d 3b be
       1.5485113 -0.6601458 0.40077475 -0.18272783
0000b0 f8 51 33 3e 52 9d 3c 3f c9 2b 96 3f 7b 31 49 40
       0.17511737 0.7367755 1.1732112 3.143645

model.rnn.bias_ih_l1 f4 [12]
000000 56 66 db 3e 61 fc 48 3f de 52 3f 3d 4d 15 16 3f
       0.42851514 0.785101 0.046709888 0.5862625
000010 55 60 1c be 5b 11 ce bf ff e5 9b bf d0 e9 3b 3e
       -0.15271123 -1.6099046 -1.2179564 0.18350911
000020 b8 45 79 3d 56 4c 14 bf a5 38 3f 3e c2 fd 75 be
       0.060857505 -0.5792898 0.18673952 -0.24022582

model.rnn.bias_hh_l1 f4 [12]
000000 6d 10 5b 3f cb 69 a5 3e 14 24 4c 3c 8f 32 b8 3d
       0.8557194 0.32307276 0.012459774 0.08994018
000010 62 1f 40 3e 96 2c ed bf 69 59 49 bf 24 83 79 3f
       0.18761972 -1.8529232 -0.78652054 0.9746573
000020 d5 72 95 3e 60 ce 9e bf e9 46 aa 3f 18 1a 1c bf
       0.29189172 -1.2406731 1.330289 -0.60977316

model.out_layer.weight f4 [4, 4]
000000 c2 62 8d be b9 68 ec 3e ca 05 37 bf a7 be 44 3f
       -0.2761441 0.46173647 -0.7149321 0.7685341
000010 fe f4 a6 be 73 01 92 3e 59 0b e9 be df 85 a5 3e
       -0.3260879 0.2851673 -0.4551647 0.32328698
000020 a3 08 ab bd 2b 12 ce 3d a3 59 18 be 64 78 2b 3d
       -0.08351257 0.10062059 -0.14877944 0.04186286
000030 b9 0a 3d be 5b 77 54 3e 61 58 e9 be d9 08 72 3e
       -0.18461122 0.20748655 -0.4557524 0.23636188

model.out_layer.bias f4 [4]
000000 27 de 3f bf 47 12 ab bf eb ac e3 3f c5 20 bf bf
       -0.7494835 -1.3364953 1.7787145 -1.4931875

model.linear_sim.weight f4 [100, 4]
000000 12 49 4c bf 49 50 4a 3f 61 af 42 3f 7b b0 22 3f
       -0.79798996 0.79028755 0.76048857 0.6355054
000010 b7 5d ee be f7 3f 07 3f fb 57 ef 3e 09 2a ea 3e
       -0.46555874 0.5283198 0.4674681 0.45735195
000020 7a ff a4 be 3a f0 e3 3e 65 d0 e7 3e 33 60 cb 3e
       -0.32226163 0.44519216 0.4527618 0.39721832
000030 cb 4b ba be fc b0 db 3e f8 e9 ce 3e 82 c5 fe 3e
       -0.3638595 0.42908466 0.4041288 0.49760062
000040 d4 e0 f1 be 24 c5 d5 3e 8b 5a d9 3e 36 07 ee 3e
       -0.47241843 0.4175197 0.4245189 0.46489877
000050 b2 df 04 bf 6d d5 1f 3f 51 47 41 3f 4e 11 18 3f
       -0.5190383 0.62435037 0.75499445 0.59401405
000060 c1 b5 9b be ac 1d e7 3e 13 9c c5 3e d8 1e ba 3e
       -0.30412105 0.45139825 0.38595638 0.36351657
000070 5b 2d 35 bf 1f c8 6b 3f bc 04 7c 3f e3 79 1e 3f
       -0.7077233 0.92102236 0.98444724 0.61904734
000080 03 88 b0 bd bf f9 2d 3e db 62 db 3d 35 5c 07 3e
       -0.08619692 0.16989802 0.107122146 0.13218768
000090 34 e4 23 bf 94 f0 1e 3f f7 3e 4d 3f f6 8f 3d 3f
       -0.64020085 0.62085843 0.801742 0.7404779
0000a0 cd 6f 61 bf a4 d2 80 3f 26 f0 73 3f 8d 7d 5d 3f
       -0.8806122 1.0064282 0.9528831 0.865197
0000b0 b5 a9 a7 be 63 a2 bf 3e 1e 43 b2 3e 06 3f a2 3e
       -0.32746664 0.3742858 0.3481683 0.31688708
0000c0 98 4c ca be 60 08 e6 3e 71 4b 0b 3f a9 67 e9 3e
       -0.3951156 0.44928265 0.5441199 0.455869
0000d0 f7 ef ea be 7f ef 08 3f 04 b3 0a 3f 25 17 0d 3f
       -0.45886204 0.5349044 0.54179406 0.5511344
0000e0 85 81 04 bf a6 ba 14 3f 4f cd 08 3f a6 d7 07 3f
       -0.5176013 0.580973 0.53438276 0.5306343
0000f0 37 8d af be 7f 5b dd 3e 60 6d bf 3e c7 0e 01 3f
       -0.34287426 0.43233868 0.37388134 0.50413173
000100 fa cb 78 bf 79 5a 8d 3f e9 42 72 3f 3b 8d 54 3f
       -0.97186244 1.1043235 0.94633347 0.83028
000110 37 58 02 bf 4e e2 1e 3f 6c 16 13 3f 43 2d 0c 3f
       -0.50915855 0.62064064 0.5745609 0.54756564
000120 89 52 9c be b4 62 a7 3e de 11 bb 3e f7 18 d2 3e
       -0.3053172 0.32692492 0.3653707 0.41034672
000130 12 7d b0 be 66 62 98 3e d4 6a b8 3e 9c f1 ae 3e
       -0.3447042 0.29762572 0.36019003 0.34168708
000140 4c f3 b2 be f4 08 b1 3e c0 7b de 3e 09 88 ba 3e
       -0.34951246 0.34577143 0.4345379 0.36431912
000150 9c 12 da be 66 5a f6 3e 71 60 01 3f 27 f2 0f 3f
       -0.42592323 0.48115844 0.5053778 0.5622887
000160 c6 a0 cb be 47 88 e0 3e 48 8d ea 3e 98 0e dc 3e
       -0.39771098 0.4385397 0.45810914 0.42979884
000170 1b 7c ec be 84 d0 17 3f 29 2e 03 3f cd ca 0b 3f
       -0.46188435 0.59302545 0.5124231 0.54606324
000180 3e cf 01 bf 9e ed 1a 3f 47 a2 34 3f 90 37 0c 3f
       -0.5070685 0.60518825 0.70560116 0.5477228
000190 63 52 63 be 70 bc 7c 3e 12 23 65 3e ba 5a 8f 3e
       -0.22199397 0.24681258 0.2237666 0.27998906
0001a0 6b 2c f4 be cc 5e 0a 3f 5a d9 00 3f 44 0f 09 3f
       -0.47690138 0.540509 0.5033165 0.5353892
0001b0 0d 9f 95 be ad 41 b3 3e a6 81 a5 3e 91 e4 bb 3e
       -0.2922291 0.35011044 0.32325476 0.3669782
0001c0 34 7f e8 be 55 8f 18 3f 63 fb 0e 3f dd 0a 0a 3f
       -0.45409548 0.5959371 0.55852336 0.53922826
0001d0 5f b1 42 be 22 37 49 3e 6b 58 5d 3e a2 2b 38 3e
       -0.19012974 0.19649938 0.2161576 0.17985395
0001e0 7d d0 3a be 4f 76 6c 3e db 18 92 3e 7d 7d 8c 3e
       -0.18243594 0.23092006 0.28534588 0.2743949
0001f0 61 2a f4 be 82 d0 03 3f 8c 0d 16 3f 9f 61 ff 3e
       -0.47688583 0.5149003 0.5861442 0.49879166
000200 eb 51 d5 be 12 f5 d5 3e d4 8d c1 3e e0 4c e8 3e
       -0.4166406 0.41788536 0.3780352 0.4537115
000210 ad f7 9e be 8b 21 d4 3e fa 42 d9 3e 65 40 df 3e
       -0.31048337 0.4143184 0.42433912 0.43603817
000220 1c c4 ea be 19 28 fb 3e 75 fd 23 3f 9f 36 15 3f
       -0.45852745 0.4905403 0.6405862 0.5828647
000230 9a 49 1f bf 4d f1 2b 3f 12 a3 2c 3f 34 fe 1b 3f
       -0.6222168 0.6716507 0.67436326 0.6093476
000240 0f 70 12 bf d1 fb 17 3f 5a d6 31 3f 53 ca 20 3f
       -0.5720224 0.59368616 0.694677 0.6280872
000250 04 42 2e bf 50 64 2d 3f 1f 41 6b 3f 95 17 36 3f
       -0.6806948 0.6773119 0.9189624 0.71129733
000260 6c 33 c0 3d 02 0d dc bd 51 1c 18 be 80 7d 5a be
       0.09384808 -0.107446685 -0.14854552 -0.21336937
000270 74 be 55 be 9e 4a 4e 3e ec d4 a3 3d 6e 8e cc 3d
       -0.20873433 0.20145652 0.07999596 0.09988104
000280 e3 41 63 be 71 c8 87 3e 20 7d 6f 3e 7f 2e a0 3e
       -0.22193103 0.26520112 0.23387575 0.31285474
000290 60 54 7f be b1 e5 a8 3e 22 b2 a3 3e 0c c4 d1 3e
       -0.2493453 0.3298774 0.31971842 0.40969884
0002a0 69 a4 90 be 96 33 b8 3e 41 45 ba 3e 3b e5 de 3e
       -0.28250435 0.35976857 0.36380962 0.43534264
0002b0 c6 3c 34 bf e8 3b 5c 3f a0 e8 a3 3f 63 cd 49 3f
       -0.7040523 0.8602891 1.2805367 0.7882902
0002c0 34 00 76 bf 65 51 95 3f 7e 7d 8a 3f 7e a7 54 3f
       -0.9609406 1.1665465 1.0819547 0.8306807
0002d0 78 dd 2e bf d6 f9 64 3f ce 59 55 3f 97 0a 31 3f
       -0.68306684 0.8944372 0.83340156 0.69156784
0002e0 a3 e6 99 bd 9c 75 16 3e c3 7a 15 3e af 09 31 3e
       -0.075146936 0.14693302 0.14597611 0.1728885
0002f0 40 71 ea be 18 56 c5 3e 19 6f c6 3e b8 8b e3 3e
       -0.45789528 0.38542247 0.38756636 0.44442534
000300 ce 5e d8 be ca 54 0c 3f 45 70 d1 3e af 04 43 3f
       -0.4225983 0.5481688 0.40905967 0.7617902
000310 90 9b a9 be 88 03 a8 3e 6f 4a c7 3e 75 85 e4 3e
       -0.33126497 0.32815194 0.38923976 0.4463307
000320 86 81 8b be 2c d5 c1 3e 2b c3 b9 3e 76 9b c6 3e
       -0.27247256 0.3785795 0.36281714 0.38790482
000330 7e 15 7f be 45 2b 99 3e 54 15 a5 3e 81 43 c1 3e
       -0.24910542 0.29915825 0.32242835 0.37746814
000340 1b d2 c6 be 49 df f3 3e 57 a8 f2 3e 74 d6 ee 3e
       -0.38832173 0.4763129 0.47394058 0.4664799
000350 ac 1f 10 bf 76 c2 21 3f 41 42 1b 3f 4c 9e 12 3f
       -0.5629833 0.6318735 0.6064797 0.5727279
000360 f3 d0 1b bf 85 ed 9e 3f 9f e5 82 3f a5 92 62 3f
       -0.60865706 1.2416235 1.0226325 0.8850501
000370 1a a7 be be 18 3d ea 3e d1 1f ea 3e ac ef c5 3e
       -0.37236863 0.45749736 0.457274 0.38659418
000380 e9 ba 83 be 67 8d dc 3e bb 15 e9 3e 4a 81 d6 3e
       -0.2572854 0.4307663 0.45524392 0.41895515
000390 af 17 be be 63 31 04 3f 6a ea 17 3f b7 2c 01 3f
       -0.37127444 0.5163786 0.5934206 0.50458854
0003a0 3c 39 17 bf 54 c4 22 3f 81 c4 1e 3f 0a 50 1a 3f
       -0.5907171 0.6358082 0.6201859 0.6027838
0003b0 99 50 eb be cc 0c 0f 3f 00 df de 3e fe db fc 3e
       -0.4595993 0.558789 0.4352951 0.4938659
0003c0 39 2e a2 be 10 f8 cc 3e d1 57 f4 3e 8f 23 e9 3e
       -0.3167589 0.40033007 0.4772325 0.45534942
0003d0 f4 76 f6 be 2c 87 0a 3f a5 ca 04 3f 06 bd 06 3f
       -0.4813763 0.54112506 0.5187171 0.52632177
0003e0 b1 11 54 bf d8 55 88 3f 67 4d 84 3f 77 a4 52 3f
       -0.82839495 1.0651197 1.0336121 0.82282203
0003f0 aa 1f 08 bf 6a fc 64 3f 37 3e 81 3f 5e 8d 65 3f
       -0.53173316 0.89447653 1.0097111 0.89668834

model.linear_sim.bias f4 [100]
000000 9b e8 48 3f 61 04 85 3f 70 36 99 3e 7e 88 e3 3f
       0.7847993 1.0391961 0.29924345 1.7776029
000010 4f 84 d6 3e 64 80 49 bd ee 54 16 be d5 e8 be 3f
       0.41897818 -0.04919471 -0.14680836 1.4914805
000020 6b bc 0c 40 ad 12 dd 3f bf b9 97 3f 47 70 29 3f
       2.1990001 1.7271324 1.185356 0.66186947
000030 37 b4 4d 3f ac a4 59 3f fd ec 28 3f 77 5c 5f 3f
       0.8035311 0.85016894 0.65986615 0.87250465
000040 46 bd 0b 40 30 5e 86 3f fb 5e 04 3d 8f 44 e6 3e
       2.1834273 1.0497494 0.032317143 0.4497418
000050 90 64 95 3e be cf f5 3e b1 e9 8b 3e 3c 22 82 3f
       0.29178286 0.48010057 0.2732673 1.0166698
000060 f6 20 dc 3e f6 14 58 be 11 06 2a 3f 03 cb 84 3e
       0.42993897 -0.21101746 0.66415507 0.25936136
000070 26 f3 4c 3e d4 de 89 be ab 38 43 3f bd 00 29 3f
       0.20014629 -0.26927817 0.76258343 0.6601675
000080 9c 26 36 3f f2 b6 95 3e 12 eb 01 3d a9 1c e9 3f
       0.71152663 0.2924114 0.03171832 1.8211871
000090 01 ac 9b 3f bc 9b 38 3f 3c 3a 93 3f 4f b2 fb 3f
       1.2161866 0.7211263 1.1502147 1.966379
0000a0 80 65 03 3f 05 5b 65 3e 7f 37 8e 3f c1 13 b6 3f
       0.5132675 0.22398002 1.1110686 1.4224778
0000b0 8a 7e 62 3f d9 9f a1 3f d0 d3 f8 3f 90 22 09 3f
       0.88474333 1.2626907 1.943964 0.53568363
0000c0 8b a8 2b 40 6c 7a ed 3d 9f 5c 8c 3e ef 72 d8 bd
       2.682162 0.11595616 0.27414414 -0.10568797
0000d0 b1 48 ee 3e 29 0f d2 3f db dd aa 3f d1 23 bc 3e
       0.46539834 1.6410877 1.3348955 0.36746076
0000e0 06 07 6b 3f af df e7 3e 56 cb 9e 3e 8d ad 7e 3f
       0.9180759 0.45287845 0.31014508 0.9948357
0000f0 ba bc d6 3d 00 62 09 3f ce 84 b0 3f 6b 2d e0 3f
       0.104852155 0.5366516 1.3790529 1.751386
000100 3a 89 f0 3e a5 df 01 3f f7 27 fb 3e 32 f9 46 3f
       0.46979696 0.5073188 0.49053928 0.7772399
000110 a5 bd f7 3d 45 42 a5 3d d2 ad 91 3f 06 15 30 3f
       0.12096719 0.080692805 1.1381171 0.6878208
000120 05 66 9e 3f 7d 26 88 3f 77 4c 42 3f 22 af 42 3f
       1.2374884 1.0636746 0.75897926 0.7604848
000130 9d 2c 2e 3f 54 e9 d7 3f 52 8d a4 3f 14 d3 97 3f
       0.68036824 1.6868081 1.2855628 1.1861291
000140 90 63 ef 3d ed 9e 9b 3f e6 af 93 3e 4d d0 df 3f
       0.11688912 1.2157875 0.28845137 1.7485443
000150 96 33 29 3f c2 a3 c2 3f d6 64 b1 3e 7b 57 5d 3f
       0.6609434 1.5206225 0.34647244 0.8646161
000160 b0 38 f2 3e 85 22 8f 3f 0c a0 2e 3f 38 e0 6f 3f
       0.47308874 1.118241 0.6821296 0.93701506
000170 7a 77 3d 3f 25 5a 11 3f 1c cf 7d 3f a0 9a ad 3f
       0.7401043 0.56778175 0.9914415 1.3562813
000180 c8 77 ca 3e 29 c1 a3 3f 83 5c 82 3f b9 96 97 3f
       0.3954451 1.2793323 1.0184482 1.1842872

model.capsule_0.attention_layer.attention_vector f4 [4]
000000 ab aa 26 c1 e2 43 e1 40 57 72 af bf 70 c3 d6 c0
       -10.416667 7.0395365 -1.3706769 -6.711357

model.capsule_0.linear_prob.weight f4 [100, 4]
000000 e0 39 db 3f 98 22 bd c0 2d 7e 09 41 0f 64 ba c0
       1.7127037 -5.910473 8.593305 -5.824714
000010 e4 78 63 3f 61 9b 93 c0 e3 08 ae 40 ad b4 9a c0
       0.8885634 -4.612717 5.438585 -4.834555
000020 cc 55 a7 3f 4b 30 1a c0 94 6c 9f 40 a7 0a 46 c0
       1.3073058 -2.4091976 4.982004 -3.0944002
000030 1e 69 18 3f 84 30 69 c0 a5 92 83 40 4a 0d 9a c0
       0.59535396 -3.6435862 4.111651 -4.814122
000040 82 ab 09 3f ce 5f 67 c0 4b bb 85 40 87 fc 7f c0
       0.53777325 -3.6152225 4.179113 -3.999788
000050 a5 82 09 40 00 a8 90 c0 61 18 04 41 31 5b b8 c0
       2.148599 -4.520508 8.255952 -5.761132
000060 db 06 c0 3f fa 81 24 c0 9f f7 8d 40 31 09 2b c0
       1.5002092 -2.5704331 4.436477 -2.672436
000070 ee 84 0d 40 57 42 e3 c0 1d 83 06 41 02 45 e8 c0
       2.2112384 -7.101848 8.40701 -7.258424
000080 eb a2 64 3f 3e 6b de bf 93 a8 d7 3f d2 3c c2 bf
       0.89311093 -1.7376478 1.684832 -1.5174811
000090 7a 8b 24 3f dc aa bb c0 5c e7 e6 40 a0 34 eb c0
       0.64275324 -5.864607 7.215742 -7.350174
0000a0 5a 56 e1 3f b5 f3 0c c1 f7 16 04 41 48 c8 d4 c0
       1.7604477 -8.809499 8.255607 -6.6494484
0000b0 55 c7 cf 3f 21 1c 01 c0 02 99 6d 40 af 3e 29 c0
       1.6232706 -2.0173419 3.7124639 -2.644451
0000c0 7a 61 8b 3f 37 ec 6c c0 05 58 a9 40 e3 45 77 c0
       1.0889122 -3.7019174 5.2919946 -3.8636405
0000d0 f4 e1 6f 3f c9 be a9 c0 08 a4 be 40 c7 b0 ab c0
       0.9370415 -5.304539 5.9575233 -5.3653293
0000e0 0b 30 90 3f a4 36 9f c0 46 85 cb 40 86 39 92 c0
       1.1264662 -4.97542 6.3600187 -4.569522
0000f0 c1 c6 83 3f 82 4e 89 c0 1e f8 81 40 6f 73 76 c0
       1.029503 -4.2908335 4.0615377 -3.8507955
000100 10 a9 8f 3f f3 11 04 c1 59 7b c5 40 3d 6b c9 c0
       1.1223469 -8.254382 6.171307 -6.2943406
000110 2e 49 f5 3f ae 6d 8a c0 41 ef ac 40 86 9a 84 c0
       1.9162958 -4.3258886 5.404206 -4.1438627
000120 5c 44 1d 3f a5 6a 52 c0 50 bb a1 40 27 dd 77 c0
       0.61432433 -3.287759 5.0541153 -3.872873
000130 89 f3 17 3f 8f 49 48 c0 a2 e7 91 40 b0 07 82 c0
       0.5935598 -3.1294897 4.5595255 -4.0634384
000140 01 d7 ba 3f ca 10 3b c0 61 4c a2 40 31 c8 6c c0
       1.4596864 -2.9228997 5.0718236 -3.6997187
000150 ca be fd 3f e0 dd 97 c0 3d df c9 40 79 e7 aa c0
       1.9823849 -4.7458344 6.308501 -5.340756
000160 ca 87 c8 3f 10 06 55 c0 03 b2 a6 40 16 a1 74 c0
       1.566644 -3.328495 5.20923 -3.822332
000170 1e 79 d2 3f 27 53 b9 c0 eb e0 a6 40 9e 40 88 c0
       1.6443212 -5.7914004 5.214956 -4.257888
000180 16 94 b9 3f 0c bd 7f c0 d2 21 ec 40 94 d3 b0 c0
       1.4498317 -3.9959135 7.3791285 -5.5258274
000190 c0 b2 91 3f 00 71 2d bf ba fd f7 3f 82 3f d1 bf
       1.1382675 -0.6775055 1.9374306 -1.6347506
0001a0 4f 5d 47 3f 75 ef 73 c0 0d e6 ab 40 84 1c a3 c0
       0.7787675 -3.8114903 5.3718324 -5.097231
0001b0 38 51 64 3e 9d 0a 41 c0 56 41 60 40 f3 0b 49 c0
       0.22296607 -3.0162728 3.5039878 -3.1413543
0001c0 66 5c 98 3f cc 1d d4 c0 51 8d c5 40 e7 1e b2 c0
       1.1903198 -6.6286373 6.1735005 -5.5662723
0001d0 5d 25 44 3f 38 24 b0 bf 5f 48 16 40 90 d6 af bf
       0.7661951 -1.3761053 2.3481672 -1.3737354
0001e0 37 b9 30 3f 1f 0b f5 bf 35 96 08 40 7e ac 00 c0
       0.69032615 -1.9144019 2.134168 -2.010528
0001f0 23 bd ce 3f 48 e8 55 c0 48 5e 9b 40 cf 7f 71 c0
       1.615147 -3.3423023 4.855259 -3.7734258
000200 21 d4 09 3f 68 c6 55 c0 4e 4a 71 40 5d 23 5b c0
       0.5383931 -3.3402348 3.7701602 -3.4240334
000210 d4 5d 9b 3f bc aa 4b c0 95 d2 99 40 8b 46 55 c0
       1.2138009 -3.1822958 4.806956 -3.3324306
000220 bc e3 b4 3f 6b 9a a9 c0 5e 4b d8 40 77 d9 b7 c0
       1.4131999 -5.3001 6.7592 -5.745296
000230 b8 6c bb 3f 53 f9 a2 c0 36 cc b3 40 8f b0 90 c0
       1.4642553 -5.092935 5.618678 -4.5215526
000240 0d ac 0a 3f ef 44 9a c0 6f 1a d0 40 68 67 ad c0
       0.5416878 -4.8209147 6.5032268 -5.418873
000250 59 00 05 40 91 e9 b3 c0 01 63 12 41 8e da fb c0
       2.0781462 -5.6222615 9.149171 -7.870429
000260 bf c0 2b bf 36 21 dd 3f a2 38 c9 bf 22 69 d3 3f
       -0.6709098 1.727576 -1.5720408 1.6516459
000270 38 15 10 40 f8 97 b8 bf d7 05 be 3f cc 8d aa bf
       2.251295 -1.4421377 1.4845532 -1.3324523
000280 95 25 00 3f b5 b1 11 c0 40 8e 33 40 ed 35 30 c0
       0.50057346 -2.2764714 2.8055573 -2.7532914
000290 da dc 27 3e ea d1 43 c0 e5 11 74 40 50 a3 69 c0
       0.16392842 -3.0596871 3.8135922 -3.6505928
0002a0 9c 82 cd 3f 0f 5d 49 c0 70 d8 78 40 8b e4 40 c0
       1.6055484 -3.1463048 3.8882103 -3.0139492
0002b0 42 b6 1f 40 ad bf 5d c0 b2 c9 e9 40 a6 2a 67 c0
       2.4954991 -3.464824 7.305871 -3.611978
0002c0 8e dd e1 3f 49 a2 7c c0 31 56 cf 40 21 97 7e c0
       1.7645738 -3.947405 6.4792714 -3.9779742
0002d0 eb ee f3 3f 7b 41 f1 c0 e1 69 f7 40 e0 bb cf c0
       1.9057287 -7.539243 7.7316747 -6.491684
0002e0 5c 9a fa 3e da 2f e5 bf fc 98 15 40 b1 9c bf bf
       0.48945892 -1.7905228 2.3374624 -1.4969693
0002f0 29 8b 1a 3f 66 1c 00 c0 29 69 65 40 7f 61 5d c0
       0.6036859 -2.0017333 3.5845435 -3.4590757
000300 74 6a ab 3f df e0 38 c0 e9 76 01 40 82 7a c6 bf
       1.3391862 -2.888725 2.0228827 -1.5506136
000310 22 02 4d 3f 10 62 f9 bf 9d 75 58 40 57 55 4f c0
       0.8008138 -1.9483051 3.3821785 -3.2395837
000320 bb ee 76 3f e6 4a d6 bf 85 56 52 40 a6 7d 25 c0
       0.96458024 -1.6741607 3.2865307 -2.585794
000330 61 77 a0 3f 77 23 b4 bf 52 82 42 40 75 bb 3b c0
       1.2536432 -1.4073323 3.0392041 -2.9333165
000340 3c 92 86 3f 77 22 81 c0 d5 05 a3 40 27 58 70 c0
       1.0513377 -4.035457 5.094462 -3.7553804
000350 99 10 3b 3f 34 2c d1 c0 28 c0 b2 40 fe 6c a4 c0
       0.730722 -6.536646 5.5859566 -5.1383047
000360 0d 49 2a 40 56 98 d1 c0 69 cc ad 40 59 d9 85 c0
       2.6607087 -6.5498457 5.4312024 -4.1827817
000370 b9 ef 1c 3e ce 09 5e c0 e9 33 92 40 0c ff 61 c0
       0.15325822 -3.4693484 4.5688367 -3.5311918
000380 9d 88 29 3f c3 09 8d c0 34 e5 81 40 99 f1 84 c0
       0.6622408 -4.4074416 4.059229 -4.154492
000390 12 64 c4 3f d7 a6 8c c0 2b 1f c9 40 c8 8a 6e c0
       1.5343039 -4.395366 6.2850547 -3.7272205
0003a0 95 c3 c6 3f 71 c3 ba c0 d7 40 c0 40 f7 19 98 c0
       1.5528437 -5.8363576 6.007915 -4.7531695
0003b0 c7 23 ca 3f c5 7a 70 c0 d9 b2 70 40 e0 97 49 c0
       1.5792168 -3.7574933 3.760916 -3.1498947
0003c0 b6 cc c0 3f 9a ba 7e c0 a4 5e d0 40 12 91 90 c0
       1.5062473 -3.9801393 6.511553 -4.517709
0003d0 a9 90 83 3f a2 9f 8e c0 ed 20 aa 40 d4 51 92 c0
       1.0278522 -4.4569864 5.3165193 -4.572489
0003e0 a1 a5 d1 3f b3 5f 04 c1 41 a6 f4 40 88 52 b8 c0
       1.6378671 -8.273364 7.6452947 -5.7600746
0003f0 c3 ec c9 3f 8e 50 a3 c0 37 be eb 40 16 0b a1 c0
       1.5775379 -5.1035833 7.3669696 -5.0326033

model.capsule_0.linear_prob.bias f4 [100]
000000 16 37 a3 3e cd ca d6 3e 20 47 27 3e db 94 65 3f
       0.31877965 0.419516 0.16335726 0.8968026
000010 13 f7 44 3e d1 fd e3 3c 12 26 17 3e db 8e 1a 3f
       0.19234876 0.02783099 0.14760616 0.6037423
000020 69 b5 74 3f 46 0d 2e 3f 96 8d 1d 3f c1 ae 0e 3f
       0.9558931 0.67989004 0.6154417 0.55735403
000030 cc 34 c6 3e 02 05 b0 3e 92 eb c4 3e c8 6a 35 3f
       0.38712156 0.3437882 0.38460976 0.7086606
000040 1c bc 8a 3f 6f ea 02 3f be 7c 8c 3e dc 70 c2 3e
       1.0838656 0.5113897 0.2743892 0.3797673
000050 fb 99 b3 3e 77 6e a3 3e aa be b8 3d 09 aa c7 3e
       0.35078415 0.31920215 0.09020741 0.38996914
000060 47 0d 06 3e 30 76 50 be 6a 50 80 3e fa a3 6b 3e
       0.13091002 -0.20357585 0.2506135 0.23011771
000070 66 88 89 3e cd 3e 32 be 7b c5 ae 3e fa 55 80 3e
       0.26861876 -0.17406769 0.3413504 0.25065595
000080 20 63 ca 3e 92 35 ba 3e 0b ad 21 3e 41 c3 3a 3f
       0.3952875 0.36368996 0.15788667 0.72954184
000090 46 c9 f7 3e 8e 3e 33 3e 0d ac 3b 3f 11 73 49 3f
       0.48395747 0.17504331 0.73309404 0.786912
0000a0 03 bc 5c 3e da 93 1f 3e 5f 94 16 3f d5 f0 26 3f
       0.21556096 0.15583745 0.58820146 0.6521123
0000b0 d5 54 0f 3f 00 f7 cc 3e 99 58 7b 3f c2 f5 85 3e
       0.5598882 0.40032196 0.98182064 0.2616406
0000c0 10 fb be 3f ba ad 85 bd a8 e6 c9 3d 92 26 55 be
       1.4920368 -0.06527276 0.09858447 -0.20815495
0000d0 8f 3c e1 3e 9b cf 36 3f 99 c7 21 3f 26 2a 94 3d
       0.43991515 0.7141053 0.63195187 0.07234602
0000e0 03 40 bb 3e 2e 73 c1 3d fd 9c c1 3e ff 54 ec 3e
       0.36572275 0.09445797 0.37815085 0.46158597
0000f0 dc a7 a7 3e b0 af 80 3e b6 28 30 3f 70 43 57 3f
       0.32745254 0.2513404 0.6881212 0.84087276
000100 90 66 77 3e 98 b1 89 3e a3 b0 c7 3e 72 c6 15 3f
       0.24160218 0.26893306 0.3900195 0.5850593
000110 9e 43 0b 3e 47 9b 59 be 05 6a 2b 3f f2 c3 00 3e
       0.13600013 -0.2125064 0.6695865 0.12574747
000120 dc a8 06 3f ad 74 c7 3e c4 84 f1 3e 93 4d b6 3e
       0.5260141 0.38956204 0.47171605 0.3560606
000130 60 d2 b8 3e d0 5f 11 3f 6e e8 a2 3e d9 69 17 3f
       0.36098003 0.56786823 0.31817955 0.59145886
000140 a6 32 ba 3d cb a3 01 3f 44 0b c2 3e cd 0d 4a 3f
       0.09091692 0.50640553 0.3789922 0.7892731
000150 0e e7 09 3f 06 55 47 3f c7 dc 4a 3e d1 04 29 3f
       0.53868186 0.7786411 0.19810782 0.66022974
000160 e4 5b 93 3e 53 15 dd 3e 37 ad 13 3e 88 e3 a3 3e
       0.28781044 0.43180332 0.14421545 0.3200953
000170 e7 4e 00 3f 50 21 03 3f f3 a1 d1 3e 36 58 0f 3f
       0.50120395 0.51222706 0.4094387 0.55993974
000180 90 8d df 3e 2d d9 21 3f f1 41 e3 3e d7 2d 55 3f
       0.4366269 0.6322201 0.44386247 0.8327307

model.capsule_0.linear_r_si.weight f4 [4, 100]
000000 5b 3b 0b 3e 82 b7 28 3e 3e 26 31 be c0 1f d0 3e
       0.13596861 0.16476253 -0.17299744 0.40649223
000010 cd 22 2b bd 3a 52 c2 bd e1 22 70 3c 94 be 83 3e
       -0.041781235 -0.0948834 0.014656753 0.25731337
000020 e2 39 f3 3e ba 6f 9e 3e fb 11 94 3e 57 d2 df 3e
       0.475051 0.30944616 0.28919968 0.43715164
000030 bf 2b be 3d 2d af 02 bd 30 80 19 3e ce 3a 6f 3e
       0.09285688 -0.031905342 0.14990306 0.23362276
000040 ee 34 fe 3e d4 5c 36 3e cf f2 1a 3e 8a d1 dd 3c
       0.49649757 0.17808849 0.15131687 0.027077455
000050 2a e0 31 3e cd 12 e8 3d e5 be 81 be b7 97 5a 3e
       0.17370668 0.11331711 -0.25340953 0.21346937
000060 3a ad 10 bd ae 68 56 bc f7 f2 14 be 4d 98 09 3e
       -0.03532145 -0.013086481 -0.14545809 0.13437004
000070 0c d7 ac bd b4 e6 09 3e d2 32 e7 3d bf b8 d0 ba
       -0.084394544 0.13466913 0.1128899 -0.0015924199
000080 06 70 07 3d a5 53 49 3e cc 19 63 be 84 e8 92 3e
       0.03306582 0.19660814 -0.2217781 0.2869302
000090 09 ac 38 3e 68 6e d2 bc 7d 38 c1 3f 0b eb c9 3e
       0.18034376 -0.025687411 1.5095364 0.39437136
0000a0 85 58 4f 3e 2b 9e ff 3d 0a f0 0a 3e 41 56 9f 3e
       0.20248611 0.1248134 0.1356813 0.31120494
0000b0 c3 da 90 3e b5 4e e2 3d 18 10 01 3f 7b a2 40 bd
       0.28291902 0.110501684 0.5041518 -0.047029953
0000c0 53 d4 0e 3f 28 71 c0 bd 83 dc 39 3e 4c 12 ac be
       0.5579273 -0.09396583 0.18150525 -0.3360771
0000d0 d5 25 4e 3e 1c 78 d8 3e b7 18 81 3e 6a d5 ef 3d
       0.2013162 0.42279136 0.25214168 0.117106274
0000e0 68 1a a8 3d 4d a3 26 bd e8 f5 26 3e 38 19 59 3e
       0.082081616 -0.04068308 0.16304743 0.21201026
0000f0 24 03 b8 3d b3 b6 08 bd 6e 64 6c 3e c2 8a 9e 3e
       0.08984974 -0.03337736 0.23085186 0.3096524
000100 92 79 e0 3d d1 f8 e6 3d 7a 96 0e 3e b9 51 78 3e
       0.10960688 0.11277927 0.1392459 0.24249925
000110 4d 4d e2 3e 43 73 10 3e 80 9e 90 3e 2b c0 a4 bd
       0.441996 0.14106469 0.28245926 -0.08044466
000120 08 fa cd 3e 19 63 fd 3d f4 db 21 3e 8d 5a 6b 3e
       0.4022982 0.12372417 0.15806562 0.22983761
000130 6e 7d fd 3c e8 0d 2a 3e a8 3b 98 3d 0c ac 83 3e
       0.030943599 0.16606867 0.074332535 0.257172
000140 12 ba a7 3f 82 7e 79 3e d2 f5 25 3d 88 77 85 3e
       1.3103659 0.24364665 0.040517636 0.26067758
000150 6d aa 82 3e 3c 55 af 3e 7f 1f 5f bd 4d 07 ad 3f
       0.2552065 0.34244716 -0.054473396 1.3517853
000160 51 3f 95 3d 88 32 88 3e 00 32 db bc ba c8 81 3e
       0.07287467 0.26601052 -0.02675724 0.25348455
000170 d3 48 2a 3e 60 5a 9b 3e 6e d1 cf 3d 70 7d dc 3e
       0.16629343 0.30342388 0.101473674 0.4306445
000180 a5 80 27 3e 45 5e be 3e 10 d0 e6 3f ee 2e 26 3f
       0.16357668 0.37181297 1.8032246 0.6491536
000190 56 e9 e7 3e d1 d2 82 3e fd 0b ee 3e a0 c0 0a 3e
       0.4529521 0.25551465 0.4649352 0.13550043
0001a0 22 3c 8d 3d ae 7b 96 3e f3 a8 f7 3e 33 54 d6 3e
       0.06896235 0.29391235 0.48371086 0.41861114
0001b0 ec 19 9b bd ba ab a6 3e 3b e8 f9 3e 02 7e d5 3e
       -0.075733036 0.32552892 0.4880999 0.416977
0001c0 41 be 03 3f 34 8f f5 3e 9e 99 9b 3e c3 a6 ca 3e
       0.5146218 0.47960818 0.30390638 0.39580354
0001d0 0d 15 8c 3e 7a 8d 2d 3f f4 40 46 3e da a1 13 3d
       0.2735981 0.67794 0.19360715 0.036043026
0001e0 d3 be cf 3e a2 97 0a 3f e2 58 f1 3e a1 e3 0a 3f
       0.40575275 0.54137623 0.47138125 0.54253584
0001f0 16 95 c7 3e d8 c6 05 3f 06 d1 08 3e 5a 35 ca 3d
       0.3898093 0.52256536 0.13360986 0.09873457
000200 3d 61 6d 3e 18 57 10 3f 2b a6 41 3e 3f 29 eb 3e
       0.23181625 0.56382895 0.18911044 0.45929906
000210 f6 da 50 3e 56 81 eb 3e ab 36 c3 3e 11 6a 12 3f
       0.20396027 0.45997113 0.38127646 0.57193094
000220 e2 35 6e 3e 52 8a 95 3e 14 14 56 be 93 28 f5 3e
       0.23262742 0.29207093 -0.20906097 0.47882518
000230 26 a9 4d 3e ef 5c 9d 3d 8e 37 0e 3f b0 94 43 3f
       0.20084056 0.07683741 0.5555352 0.76398754
000240 96 fc f9 3e f2 06 23 3f c9 fb 7e 3e 3c 94 ab bd
       0.4882552 0.6368247 0.24900736 -0.08377883
000250 59 0f 72 3e 33 9c 0f 3e 57 83 d4 3e 4d 9d ff 3e
       0.23638667 0.14024429 0.41506454 0.49924698
000260 93 df 8a 3e a3 ae 20 3e 76 73 53 3f 64 a4 b0 3e
       0.271237 0.15691619 0.82598054 0.3450042
000270 92 ca 58 3e 00 94 32 3f 81 b2 d8 3e f8 9c 0a 3f
       0.21171024 0.6975708 0.42323688 0.54145765
000280 2c cf e3 3e 2d 17 e1 3e 92 4b 08 3f 8b 0b 13 3f
       0.44493997 0.43962994 0.5324031 0.5743949
000290 23 37 ff 3e 0f 5c a5 3e fc 14 d9 3e a1 66 dc 3e
       0.49846753 0.32296798 0.42398822 0.4304705
0002a0 0e 8a af 3e 26 41 78 3e 64 ef b6 3e a7 d9 0e 3f
       0.34285015 0.24243602 0.35729516 0.5580086
0002b0 a0 0f a8 3e 2c 77 98 3e d4 a4 e9 3e 3b d9 28 3f
       0.3282442 0.2977842 0.45633566 0.6595647
0002c0 57 d0 ba 3e 96 cb fd 3e 37 4a 12 3f 48 04 2f 3f
       0.36487076 0.49569386 0.5714449 0.6836591
0002d0 61 b1 11 bf 77 b5 18 3e 39 8d b8 3e f6 3c ab 3e
       -0.56911284 0.14912973 0.36045244 0.33444947
0002e0 d3 99 f5 3e 52 7f 3d 3e a7 72 21 3f 6e 3e 1e bc
       0.4796892 0.185056 0.6306557 -0.009658439
0002f0 73 54 a9 3d 76 bc 51 3e 28 af 3a be 06 14 14 3f
       0.082680605 0.20482048 -0.1823088 0.57843053
000300 05 c1 35 3e 0d 13 77 3e 91 1c a0 3e 72 8c 1f be
       0.17749412 0.24128361 0.31271794 -0.1558092
000310 ea 83 69 3e 52 d2 76 3e 1a f2 b4 be 69 b4 a2 be
       0.22804227 0.24103668 -0.3534096 -0.31778267
000320 31 d6 01 be 2d 9a d4 bc d8 1a 1d 3b c3 57 55 3e
       -0.12679364 -0.025952423 0.00239723 0.2083426
000330 07 10 0f 3e 1e 55 6f be d0 9c dc bc 5c e1 ae bd
       0.13970958 -0.23372313 -0.026930243 -0.08539078
000340 4f 89 ca 3e b5 a0 15 3d 9f a3 a9 bd 40 f2 db 3c
       0.39557883 0.036530215 -0.08283161 0.026848912
000350 9a 22 32 3c f0 51 61 bd 1b 18 10 be 0e b9 14 3d
       0.0108725075 -0.055009782 -0.14071696 0.036309294
000360 5e f7 23 3e cc 40 1d 3d 97 f6 45 bb 25 58 03 3e
       0.16012332 0.038391873 -0.0030206793 0.12826593
000370 94 1b 63 3d 00 fb b4 bd 9f d8 36 bd 42 25 6c bd
       0.055446222 -0.08836937 -0.04464018 -0.05765272
000380 93 50 45 be 0f 98 6d 3e 24 e2 cf bd b1 9b 81 3d
       -0.19269018 0.23202537 -0.10150555 0.06328524
000390 16 99 fb bd 38 01 fd 3d 55 5f a0 3e c6 de f6 3b
       -0.12285058 0.12353748 0.31322733 0.007533881
0003a0 8c e1 07 3e f3 ce a0 3c c2 44 6a be 16 65 af 3b
       0.13269633 0.019629931 -0.22877792 0.0053526266
0003b0 e3 11 e4 bc 21 e4 8e be 42 89 50 3f aa 93 ae 3e
       -0.02784056 -0.27908424 0.8145944 0.34097034
0003c0 00 21 0c 3e d2 a7 81 3d 62 d2 35 3e 38 18 91 bb
       0.13684464 0.06330837 0.17756036 -0.004427936
0003d0 91 0f f7 3c 9d 21 1f be c7 86 b7 3e 1e 48 26 3e
       0.03015879 -0.15540166 0.35845014 0.16238448
0003e0 15 a3 d9 3e 37 c6 90 bc 21 a5 2c 3d db 27 8f bb
       0.42507234 -0.017672641 0.042149667 -0.004368765
0003f0 39 16 da bc ec 0f 36 3e 4c d9 53 bd e7 ef be bc
       -0.026621925 0.17779511 -0.051720902 -0.023307754

model.capsule_0.linear_r_si.bias f4 [4]
000000 fe df 37 40 88 3d af bd 06 7d 1c 40 58 16 ca 3f
       2.8730464 -0.08556658 2.4451308 1.5788069

model.capsule_1.attention_layer.attention_vector f4 [4]
000000 fa 20 0d c1 ba 89 12 41 73 58 c7 bf fc 35 95 c0
       -8.820551 9.158625 -1.5573868 -4.66284

model.capsule_1.linear_prob.weight f4 [100, 4]
000000 23 82 64 bf 3e ae bf c0 29 fe 8c 40 31 ca d6 c0
       -0.8926107 -5.99002 4.4060254 -6.7121816
000010 d7 f5 04 bf e5 ef 8c c0 03 5f 36 40 88 66 ae c0
       -0.5193762 -4.404284 2.849549 -5.450016
000020 c4 c5 5c bf 40 70 97 c0 9c 21 66 40 55 05 a6 c0
       -0.86239266 -4.7324524 3.5958014 -5.188151
000030 41 65 75 3e 85 a1 45 c0 3f be 71 40 0d 96 86 c0
       0.23964407 -3.0879834 3.7772367 -4.2058167
000040 8b bc 6a bf ec a8 8b c0 23 55 31 40 c8 aa 92 c0
       -0.91693944 -4.3643703 2.7708213 -4.5833473
000050 68 64 2b bf 89 3e a7 c0 bb 61 7c 40 26 a7 d3 c0
       -0.6695008 -5.2263837 3.943465 -6.614154
000060 60 97 4a bf ce a3 75 c0 3d f6 41 40 de 73 8d c0
       -0.7913723 -3.8381228 3.0306542 -4.420394
000070 ad 57 89 3e 36 f1 bb c0 90 f1 8d 40 4d 06 c3 c0
       0.26824704 -5.8731947 4.4357376 -6.094519
000080 41 91 b9 3f 5e 25 0b bf dc ef 92 3f 22 87 81 bf
       1.4497453 -0.5435389 1.1479449 -1.0119364
000090 89 f9 0b be 80 11 bb c0 bb 6d b5 40 90 46 f1 c0
       -0.13669409 -5.845886 5.669645 -7.5398636
0000a0 4b 08 2f be 22 24 0f c1 f8 37 d6 40 6b 83 16 c1
       -0.17093007 -8.9463215 6.694332 -9.407084
0000b0 82 af 70 be 13 5d 27 c0 0c 8f 44 40 f7 59 84 c0
       -0.23504451 -2.6150558 3.071231 -4.135982
0000c0 5e cd e7 be 5e 3a 85 c0 65 b3 6d 40 bf 87 9b c0
       -0.4527387 -4.163375 3.7140744 -4.8603206
0000d0 e0 a4 86 bf c5 83 b5 c0 50 15 90 40 fe 9d cd c0
       -1.0519066 -5.672335 4.5026016 -6.425536
0000e0 bc 7a 67 bf 6f 43 a5 c0 c2 77 9a 40 0a d7 c9 c0
       -0.9042165 -5.1644816 4.827119 -6.3075
0000f0 be 6b b0 be b1 07 87 c0 13 cf 7e 40 b3 30 90 c0
       -0.344572 -4.219689 3.9813888 -4.5059447
000100 f1 f6 0a 3f 59 3f cb c0 a2 09 b5 40 89 c7 e1 c0
       0.5428305 -6.351483 5.657426 -7.0556073
000110 fd d1 c3 3e 9d c5 8e c0 85 2f 98 40 c5 97 aa c0
       0.38246146 -4.4616227 4.7558007 -5.3310266
000120 c4 0c 85 bf 1c b5 67 c0 da 5a 5e 40 d2 d1 8a c0
       -1.0394521 -3.620429 3.4742951 -4.338113
000130 07 8e 23 bf 70 3a d5 bf c0 13 d8 3f 3c db 4f c0
       -0.6388859 -1.6658459 1.6881027 -3.247756
000140 bf f2 50 3e 79 51 e7 bf 35 87 73 40 d5 d6 41 c0
       0.204051 -1.8071738 3.8051274 -3.0287373
000150 bf e0 80 3d 90 60 46 c0 90 d4 62 40 a0 f4 b2 c0
       0.06292867 -3.0996437 3.5442238 -5.5923615
000160 e5 7d b0 be 23 ee 79 c0 99 08 8c 40 bc 65 9b c0
       -0.3447105 -3.9051597 4.3760495 -4.8561687
000170 f3 a8 e9 3d 6e b2 b2 c0 01 d6 94 40 0f d5 a3 c0
       0.11409178 -5.584281 4.6511235 -5.119758
000180 3b 53 b7 be ba 9e 81 c0 63 c7 71 40 71 82 ac c0
       -0.35805687 -4.050626 3.7777946 -5.390923
000190 d6 14 07 bf c0 6a 56 c0 52 7c 74 40 4c d3 95 c0
       -0.5276617 -3.3502655 3.820088 -4.682043
0001a0 40 98 23 bf 43 9b 98 c0 9c 0c 59 40 d1 d0 ac c0
       -0.6390419 -4.768953 3.3913946 -5.4004903
0001b0 c0 d1 bf bf 65 06 80 c0 cd f7 64 40 1b 98 9a c0
       -1.4985886 -4.0007806 3.5776246 -4.8310676
0001c0 49 68 87 bf b2 20 d3 c0 27 90 9a 40 4c 6c e8 c0
       -1.05787 -6.597741 4.8300967 -7.26322
0001d0 e4 35 84 3e 9a 5f da bf a9 6a 36 40 06 34 12 c0
       0.25822365 -1.7060425 2.85026 -2.2844253
0001e0 99 8d 76 be 58 c3 4c c0 d0 fd 4e 40 ce e6 68 c0
       -0.24077453 -3.1994228 3.2342415 -3.6390872
0001f0 18 78 9f be c2 f6 94 c0 cf f8 85 40 54 d0 b5 c0
       -0.31146312 -4.655122 4.186622 -5.6816807
000200 b1 db ed bf 22 b7 a3 c0 c7 d2 59 40 7c 37 b7 c0
       -1.858267 -5.116105 3.4034898 -5.725523
000210 8f d4 ac be cf a6 55 c0 7b 21 74 40 e9 0d 8f c0
       -0.3375592 -3.3383062 3.8145435 -4.470448
000220 5c 86 15 bf 49 0d 98 c0 02 2e 8a 40 67 40 bd c0
       -0.5840814 -4.7516217 4.318116 -5.9141116
000230 05 26 fc 3f ba 77 9c c0 eb 7a ae 40 e3 7d 9d c0
       1.9699103 -4.889615 5.4525046 -4.921617
000240 5c 6c 17 bf ad f3 b2 c0 04 57 9d 40 24 7c d7 c0
       -0.5914972 -5.5922456 4.916872 -6.733904
000250 8f 21 9d be b3 e3 b5 c0 c7 19 7f 40 6f 00 eb c0
       -0.30689666 -5.6840453 3.9859483 -7.343803
000260 ba 9c dc 3f d1 24 36 40 41 a5 1d c0 dc 48 91 40
       1.7235329 2.845997 -2.4632113 4.540144
000270 29 16 3c 40 e8 88 15 40 23 45 c8 3f a0 4c 11 40
       2.9388525 2.336481 1.5646099 2.2703018
000280 86 07 fc bc 1a 2a 11 c0 28 5c 26 40 ed d7 43 c0
       -0.030765306 -2.2681947 2.5993748 -3.060054
000290 69 84 6f bf 84 c5 5b c0 83 0a 68 40 08 e1 93 c0
       -0.93561417 -3.4339304 3.6256416 -4.6212196
0002a0 41 11 e0 3e bb 7f 38 c0 b5 ee 86 40 38 10 89 c0
       0.43763164 -2.882796 4.216639 -4.28323
0002b0 43 17 f0 3f b7 c1 3c c0 da 35 cd 40 86 9e 7f c0
       1.8757099 -2.9493234 6.4128237 -3.9940505
0002c0 e5 72 85 3f 8c 72 d7 c0 ee e3 c2 40 1c b5 92 c0
       1.0425688 -6.732733 6.0903234 -4.584608
0002d0 0f 2f 62 be c8 ad ee c0 9f 8d 82 40 5e da e3 c0
       -0.22088264 -7.4587135 4.0797877 -7.120406
0002e0 2c 3a 2e 40 4f ab 27 40 35 e9 d5 bd 29 ba 62 40
       2.7223005 2.6198308 -0.10444871 3.5426123
0002f0 d1 8f 7d bf fd cd 9b c0 a4 76 52 40 cf 43 ba c0
       -0.9904757 -4.868895 3.2884912 -5.8207774
000300 06 31 5d 40 71 78 54 40 55 5b fd bf 1f aa a3 40
       3.4561172 3.3198512 -1.9793497 5.1145167
000310 8a e5 3d bf 73 e7 6e c0 78 d6 58 40 f5 72 87 c0
       -0.74178374 -3.7328765 3.3880901 -4.232783
000320 29 90 43 bf b8 7d 98 c0 61 2b 7b 40 f1 c4 a3 c0
       -0.76391846 -4.7653465 3.9245226 -5.1177907
000330 af ad 50 bf f9 7d 83 c0 91 fa 7a 40 a1 27 b5 c0
       -0.8151502 -4.1091275 3.9215434 -5.6610875
000340 93 1b 82 bf c4 af 83 c0 05 31 6d 40 e2 bf 9d c0
       -1.0164665 -4.115206 3.706117 -4.929673
000350 05 13 ff be 63 77 c9 c0 4c 8c b2 40 ab 9f d6 c0
       -0.49819198 -6.2958236 5.579626 -6.7069907
000360 1b a4 df 3f 67 44 de c0 35 c9 b7 40 1a cb 9a c0
       1.7471956 -6.94585 5.7433114 -4.8372927
000370 84 9e 18 bf c0 08 ac bf f5 9d 52 40 96 08 09 c0
       -0.59616876 -1.344017 3.290891 -2.141149
000380 d8 3a e8 be 5d 88 80 c0 0c dc 6b 40 38 9f a6 c0
       -0.45357394 -4.016646 3.6853056 -5.206936
000390 5e 3e 10 bf 7b 24 a1 c0 92 17 5f 40 ca 8d a8 c0
       -0.56345165 -5.035703 3.4858136 -5.267308
0003a0 0c 4c c7 be 00 42 aa c0 e0 e0 9f 40 9b fe bf c0
       -0.38925207 -5.3205566 4.9962006 -5.99983
0003b0 37 2d b2 3f 37 1f 5b c0 90 2a 6d 40 b5 1e 85 c0
       1.3920048 -3.4237802 3.7057228 -4.1599984
0003c0 c4 48 cf be 97 5b 26 c0 18 96 85 40 66 2c 93 c0
       -0.40485203 -2.5993402 4.174572 -4.5991697
0003d0 0e 64 35 bf 71 77 9a c0 5d 71 89 40 d9 04 bd c0
       -0.70855796 -4.8270802 4.2950883 -5.9068418
0003e0 d3 70 f0 bc 7a 07 0b c1 04 e3 d5 40 70 81 10 c1
       -0.029350674 -8.689325 6.683962 -9.031601
0003f0 5a 77 76 3f 7d b0 ce c0 31 3d d8 40 ff ef e3 c0
       0.96275866 -6.459044 6.7574697 -7.1230464

model.capsule_1.linear_prob.bias f4 [100]
000000 f3 b1 e4 3e 01 47 05 3f b0 a7 f9 3d b9 8f 41 3f
       0.44667014 0.5206147 0.12190187 0.7560993
000010 c4 19 49 3e 7b b6 31 bc f3 5d 6b be a3 51 53 3f
       0.19638735 -0.010846729 -0.22985058 0.8254644
000020 69 dd 85 3f 60 1d 6b 3f c0 27 04 3f 22 38 ab 3d
       1.0458194 0.918417 0.51623154 0.08360316
000030 c6 0e b7 3e f6 91 d1 3e 3b a4 66 3e fe 07 ed 3d
       0.3575346 0.40931672 0.22523586 0.1157379
000040 68 60 8a 3f 5e 16 fe 3e d7 95 83 be 18 56 4d 3d
       1.0810671 0.4962644 -0.25700256 0.050130934
000050 d0 59 9d bc 10 83 1e 3e 47 03 45 3e 6a eb 13 3f
       -0.019207865 0.15479684 0.19239531 0.5778109
000060 30 28 a6 3e 35 8e fe 3c 2f b1 b7 3e 91 48 33 bd
       0.32452536 0.031073669 0.35877368 -0.043770377
000070 d2 c9 cf bd f6 5a 0b bd c2 78 aa 3e ad b4 cd 3e
       -0.10145916 -0.034022294 0.33295256 0.40176907
000080 25 5b 62 3e 37 5b 80 bd 02 3c b7 bd c3 09 87 3f
       0.22105081 -0.06267398 -0.089469925 1.0549854
000090 ed 59 25 3f ac 33 0b 3f dc 29 b4 3e 92 62 8e 3f
       0.6459034 0.5437572 0.35188186 1.1123831
0000a0 48 77 71 3e 4c 8b 02 3d 3a cb e5 3e fa 53 61 3f
       0.23580658 0.031871125 0.44881612 0.88018763
0000b0 e8 cb eb 3e f2 b4 4b 3f 62 f1 72 3f d9 da 7f 3e
       0.46054006 0.79572976 0.9489957 0.24985828
0000c0 c6 18 d1 3f 12 d7 5c 3e e6 56 2c 3e f7 57 08 3e
       1.6335685 0.21566418 0.16830024 0.13314806
0000d0 9d c5 8d 3c d7 cb 47 3f c0 3c 48 3f 65 40 a7 3e
       0.017306143 0.7804541 0.782177 0.32666317
0000e0 6b ae de 3e 72 77 af 3e 3f 11 b9 bc a9 b7 0f 3f
       0.43492445 0.34270817 -0.022591231 0.5613962
0000f0 df a8 44 be 87 cc 86 3e 26 39 27 3f 1b 4e 5a 3f
       -0.19205044 0.26327917 0.65321577 0.8527543
000100 57 00 55 3e 41 5f 62 3e f0 bd a1 3d 16 ac e1 3d
       0.20800911 0.22106649 0.07897556 0.11019151
000110 dc 73 59 3d 3b c8 97 3e 5e 05 e5 3e 70 9f 10 3f
       0.053089008 0.2964495 0.44730657 0.5649328
000120 25 19 80 3f f7 a0 15 3f f3 b6 82 3e b4 c4 c1 3e
       1.0007674 0.5844874 0.25530204 0.37845385
000130 1a cc 8e 3e e9 d5 7e 3f 9a 2a 61 3f e5 a5 0e 3f
       0.27890092 0.9954515 0.8795563 0.55721885
000140 2e c7 9d 3e aa f3 16 3f 33 f3 c5 bc f3 ff 60 3f
       0.30816025 0.5896555 -0.024163818 0.8789055
000150 b9 2e cd 3d bf 86 41 3f 97 57 45 3e 7b c6 56 3e
       0.10018677 0.7559623 0.19271694 0.20974152
000160 74 c7 19 3e 47 7c 25 3f 91 e3 fc 3e 10 81 56 3f
       0.15017492 0.6464276 0.4939237 0.83790684
000170 aa e9 30 3e 23 87 38 39 d2 dc 03 3f 77 b8 26 3f
       0.17276636 0.0001759795 0.5150882 0.6512522
000180 92 f0 f5 bc 3b 4c 46 3f 40 79 14 3f 7f 20 f8 3e
       -0.03002194 0.7746007 0.5799751 0.48462293
