saved_model/assist2012_PKT_qid_saved_model_new_42_0_8_0.003_0_1_2_2_False_0.2_0.1_0.2_0.4_GRU_64/qid_model.ckpt (torch, 72473 bytes, 23 tensors)

model.interaction_emb.weight f4 [530, 8]
00000000: dcb6 0c40 dd71 5e3f 0760 7abe 5d20 703f
00000010: d875 e43d 5d2f 59bf b47a 4fbf 7c56 0940
00000020: ea9b 2c3f 0949 27be bbe9 76bf 159b e33e
00000030: 2438 53bf 9a96 09bf 0b7c 81be 39ee a13f
00000040: f8d1 923f 7ea6 3b3e 3917 343e 1d40 0d40
00000050: 6149 cbbf a990 a3bf 907f f4bd 6d9c e93f
00000060: 8c7b 4f3f 812c 1cbf ec57 49bf a8f0 423f
00000070: 0a04 29bf 1f74 43bf 33ad 06be 1945 573f
00000080: ffec bd3f 99cd 0fbf ea47 80bf 2ba2 9d3f
00000090: a7b1 99bf d77f a1bf 9643 cb3e 39c4 283f
000000a0: e72b 2d3f fc42 40bf c8cc 9bbf ec46 863f
000000b0: f753 75bf 6141 6ebf 04be 1abe 28c5 cb3e
000000c0: a203 ec3f 1adc 47bf 4a25 0cc0 875f b13f
000000d0: 5fc2 c9bf e997 cb3e 5f66 32bf c649 f33f
000000e0: b3ce a03f aa5f bcbe 6b85 5ebf 70b7 dd3f
000000f0: acf6 1bbf f9fa 47bf 374c 60be feec 883f
00000100: 4fe3 bb3f 6d7d a5bd a203 81bf 3ae3 883f
00000110: a88b 92bf c4df 87bf 73e9 e73e 202d a73f
00000120: ee5d d73f c440 623c fe29 9cbf dd3f 483f
00000130: fae2 d9bf 0dbe 9cbf 777a 973e d208 523d
00000140: 2b5f a03f dce5 45bf d4a3 b8bf 5264 463f
00000150: 1fc5 07c0 0664 fbbe 477a aa3e aede bf3f
00000160: fa9d bc3f acd3 d2be ac64 66bf 4e50 343e
00000170: 1d6b 50bf 9984 1ebf ddc6 08bf 5caf 8d3f
00000180: b2bd 313f 9b32 a1bf f6ac 56bf 193a 9f3e
00000190: dea2 3abf befd 3fbd f438 43be ecc8 083f
000001a0: 883f db3e 1a48 6e3e 53ae ddbf 029b a23f
000001b0: 5210 babd fa94 e3bd 6418 d0bf 9ea6 c03f
000001c0: 9f95 063f 2d94 46bf 2b92 b3bf 51b9 b83e
000001d0: 0f83 33bf 3739 08bf cd85 05bf 4f0c 3d3f
000001e0: f197 9a3f 2948 afbc 8ee3 07bf eab3 fb3f
000001f0: 43ac 87be c723 69bf b156 13bf 4b6e b23f
00000200: 0751 833f 7438 1abf de65 58bf 1228 8c3f
00000210: 1450 4fbf 3391 4dbf dd08 09be 409f 903f
00000220: d0bf 573f 9483 17bf f3d0 36bf a8bf 773f
00000230: 5b90 95be 5a40 01bf 2dbe 32bf bc46 243f
00000240: c9cf 633f dced 8abf 5ac7 87bf c85e 9b3f
00000250: a104 44be 716a a2be f780 30bf b154 073f
00000260: e56f cf3e 007d ff3e 9da3 60bd 1662 133f
00000270: d572 8fbf d1a6 9b3f 9741 02c0 56ca fe3f
00000280: 53b1 2e3f b3b2 88bf 0b68 98bf 52ca f33e
00000290: 3c90 1abf 0a99 23bf fc9d 8abe 30ee ef3e
000002a0: 3f71 033f 4a96 74bd 0ae3 57bf ddd0 7c3f
000002b0: 75c4 96bf 5c9d a9bf 6823 a43c 4c00 7a3f
000002c0: a8e9 563f 5103 4fbf a91c 5fbf 5896 cb3e
000002d0: e501 02bf 534a 0dbf 90bd 38bf f330 893e
000002e0: aa27 ef3f eada 0ebf 1f5a bebf 245a 923f
000002f0: 2730 c2bf d8aa b0bf 9ed8 223f f61f 853f
00000300: 6e6b 2d3f d275 acbf e25b 6cbf 5e54 c83d
00000310: 60c7 b8be 9c98 e63d 9cb3 85bf 871b 473f
00000320: 84a5 e73f b391 673e abbb 9cbf 4e21 9a3f
00000330: cee0 cebf 50a7 afbf ce91 e93e ffc0 663f
00000340: 7f46 b53f 2b1d b73e 3e6b d8be 0269 b13f
00000350: d1d8 f3be 9d4d 9ebf 710a 1abf 4172 9f3f
00000360: f67d 613f 6f98 1dbf 3ac1 91bf d546 903f
00000370: 32c7 92be 9950 0abf 6917 e9be ede1 4c3f
00000380: 32f9 e33f 7a2c f03d e94b 63bf 9eba b63f
00000390: e094 f8bf 5d02 9ebf 173c 663f 1745 8a3f
000003a0: a4fd 963f 26bc 2fbf ed41 9cbf 4a75 8c3f
000003b0: 166d abbe 8aad 04bf 087d 71be 7788 183f
000003c0: 1599 873f ca7d 92be 7ad6 55bf 236e 783f
000003d0: f240 12bf 15ce 32bf 7f46 cbbe 06d4 813f
000003e0: 62ba a43f ccf7 c8bf 19f0 9abf de68 5c3f
000003f0: 65ce 23bf bb49 7c3e d374 f63d 28d9 543f
2.1986609 0.8689249 -0.24450694 0.9379938 0.111552894 -0.84837896 -0.81046605 2.1459036
0.67425406 -0.16336454 -0.96450394 0.44454256 -0.8250754 -0.53745425 -0.2528995 1.2650825
1.1470327 0.1832523 0.17586984 2.2070382 -1.5881768 -1.2778522 -0.11938393 1.8250862
0.8104789 -0.6100541 -0.78649783 0.7614846 -0.6602179 -0.7634906 -0.13152008 0.8408981
1.483795 -0.5617309 -1.0021946 1.2315115 -1.200734 -1.2617139 0.397 0.6592441
0.67645115 -0.7510221 -1.2171869 1.0490394 -0.95831245 -0.9306851 -0.15111548 0.39798856
1.8438609 -0.78070223 -2.189776 1.3857278 -1.5762442 0.39764336 -0.69687456 1.9006889
1.256308 -0.36791736 -0.8692233 1.7321606 -0.60923266 -0.7811733 -0.21904074 1.0697324
1.4678744 -0.08080564 -1.0079234 1.0694344 -1.144887 -1.0615163 0.45295295 1.3060646
1.682554 0.013809387 -1.2200315 0.7822245 -1.7022393 -1.2245499 0.2958562 0.051277943
1.2529043 -0.7730386 -1.4424996 0.77496827 -2.1214063 -0.4909975 0.33296415 1.4989831
1.4735711 -0.41177118 -0.89997363 0.17608759 -0.8141344 -0.6192108 -0.5342844 1.106914
0.6943008 -1.2593569 -0.8385767 0.31099012 -0.72904766 -0.046872847 -0.19064695 0.5343158
0.42821908 0.23269692 -1.7318825 1.2703555 -0.09085144 -0.111123994 -1.6257443 1.5050848
0.52572054 -0.7756985 -1.4028982 0.36078885 -0.70121855 -0.532123 -0.5215729 0.73846906
1.2077619 -0.021396713 -0.53081596 1.966428 -0.26498613 -0.91070217 -0.57554156 1.3939909
1.0259103 -0.6024239 -0.84530437 1.0949728 -0.80981565 -0.8029968 -0.13382287 1.1298599
0.8427706 -0.5918515 -0.7141258 0.9677682 -0.29211697 -0.5048882 -0.69821435 0.6417043
0.8898893 -1.0853839 -1.0607712 1.21383 -0.19142391 -0.31721833 -0.68946785 0.52863604
0.40515056 0.49900055 -0.054843534 0.5757154 -1.1206919 1.2160283 -2.0352533 1.9905498
0.68239325 -1.0679535 -1.1906751 0.47615296 -0.60376334 -0.63905394 -0.27073658 0.4686141
0.51344675 -0.05971364 -0.8433081 0.987562 -1.1778704 -1.3251147 0.020036414 0.97656703
0.8395028 -0.80864435 -0.87153107 0.3976314 -0.5078414 -0.55191535 -0.7216425 0.26795158
1.868398 -0.55802786 -1.4871253 1.1433759 -1.5170945 -1.3802137 0.6361178 1.0400379
0.6774205 -1.3473456 -0.923277 0.09781717 -0.3608961 0.11259577 -1.0445437 0.7777638
1.8097386 0.22614174 -1.2244772 1.2041414 -1.6162355 -1.3722935 0.45619053 0.9013824
1.4162139 0.3576444 -0.4226932 1.3860171 -0.47626355 -1.2367436 -0.6017218 1.2456743
0.88082826 -0.6156072 -1.1387093 1.1271616 -0.286676 -0.5402923 -0.45525673 0.80032235
1.7810423 0.11727233 -0.88787705 1.4275701 -1.9420433 -1.2344471 0.8993544 1.0802335
1.1796155 -0.68646467 -1.2207619 1.0973294 -0.33481663 -0.518273 -0.23582852 0.5958323
1.0593592 -0.28611594 -0.8353039 0.97043055 -0.5713035 -0.69845706 -0.39702222 1.014283
1.286938 -1.5700622 -1.2104522 0.86097515 -0.6398681 0.24637501 0.12034001 0.83143854

model.rnn.weight_ih_l0 f4 [24, 8]
00000000: 4e8f c4bd 983b 4bbc 7746 b83d 6c5f 06bf
00000010: b1bf 89bc aa82 e6bd 0315 673c f3cb d2bd
00000020: 9db1 363c 2609 8cbe a8ec c5be 8285 153f
00000030: f61a 823e ed81 663e f81b 4dbf cc0a 0c3e
00000040: c65d 0d3f b5fc e5be 3ab1 94be 0b1d b93e
00000050: fb78 07be 2302 39be eded 14bf ab6f 153f
00000060: 037f 75be 0a91 083e 4850 0d3f 6522 6fbe
00000070: 5ef5 c83d 7cb3 60bd 699f bc3e a857 693e
00000080: 5a8a 96bf 0819 923f 6023 893f 3bb9 b2bf
00000090: a16f 7a3f 33fd e93e 9221 8b3f 72de d8bf
000000a0: 4b49 073f 1888 75bf 2470 483f 7dc3 a33f
000000b0: 1bbc 1a3e 1e66 c83f c276 9cbe 71e8 62bf
000000c0: da6d 0dc0 36ac 263f 9b08 ee3f cd92 1bbd
000000d0: 499c 813f b17c db3f 92f6 97be d6ed 09bf
000000e0: 2ebb 92be 4a45 82be 67cf 4cbf 709d cfbe
000000f0: 3684 543d eed6 21bf ab24 813f 3de8 103d
00000100: f2f9 09be 72ab 1f3e 9419 093e f6fa fabc
00000110: 38b6 2a3e b554 2f3d bba2 fb3b 3e22 bebd
00000120: 0d18 adbe 8a75 0b3e 7184 a13d 5346 1abe
00000130: 80cd ba3e e0c7 923e de0f 7dbd 0e7c 1fbe
00000140: c5db 453e 25f9 bcbe 68f5 3abe 5b80 723d
00000150: ee1e 80be 73fa 22be 7ec9 dfbe dd86 823e
00000160: 189d 57bd 6814 9cbd 2628 7a3e 6bb4 5d3d
00000170: e603 bd3e 82ec 9f3e e25a ad3e 8667 a4bd
00000180: 480a b1bd 4af8 43be 7f95 94bd e21e 883d
00000190: 8fe8 573e 8d63 9e3d b945 893d 4e38 f9bd
000001a0: f09b 353d 39f7 21be 3fc7 07be 4071 afbb
000001b0: fe24 123e 76ce 533e dfa4 77bd 18e8 2d3d
000001c0: a153 09be 746e fcbd 9559 263c c6a0 e83c
000001d0: 871a 873e 4e93 923e 0803 793d 3e67 053e
000001e0: b43d aa3d b3f9 cb3d 7f64 e8bd ba0f 613d
000001f0: 07d6 023e eec3 413d b11b b4bd 799f 513e
00000200: 414e 2cbe bdda a13d 514e fe3d f446 1ebe
00000210: fb8a 073d 5898 5b3e d63e c93e 0892 efbd
00000220: 2402 663e e5d4 19be c896 bebe d51d 0a3f
00000230: a2be 24be 5c9c 10be dc06 aabe e3b3 7c3e
00000240: 5da7 0dbe b4fb 133e 3ebc 1c3e 7e96 93bd
00000250: 1565 b13e 9a27 8f3e 1ec4 423d 2c40 0abe
00000260: f11c 223e 4d84 7fbe 8657 15be ddf8 613e
00000270: e117 14bd 9a31 15be 04fb 7abe 7dac 623e
00000280: 3971 943b 2ef4 01be ae10 5fbe 9a21 a83e
00000290: f5ac c63d 3001 7f3c 2077 863e 5024 9e3e
000002a0: 247c 5dbf 40b7 8c3f bb88 913e 3d99 7bbf
000002b0: 002f 4b3d 8f83 7e3f 372d 2a3f 2d65 69bf
000002c0: 0f96 5d40 8bf7 9abf cff8 0cc0 4b25 903f
000002d0: 8758 bfbf afb9 45bf c380 62bf c650 e13f
000002e0: 9968 e3be 9417 9abe fb5b a3bd 3465 ef3d
000002f0: 2264 2dbe a67e 55bd bf69 fe3c 1739 093f
-0.09597646 -0.012404345 0.08997815 -0.5248935 -0.016815038 -0.11255391 0.014104131 -0.102928065
0.011150745 -0.2735073 -0.38657117 0.5840684 0.25411195 0.225105 -0.801208 0.13675994
0.5522121 -0.44919363 -0.29041463 0.3615497 -0.13229744 -0.18067221 -0.58175546 0.58373517
-0.23974232 0.13336578 0.55200624 -0.23352964 0.09812425 -0.05485867 0.3684037 0.22787344
-1.1760972 1.1413889 1.071392 -1.3962778 0.9782658 0.45700988 1.086962 -1.6942885
0.5284621 -0.9591079 0.78296113 1.2794033 0.15110819 1.5656164 -0.30559355 -0.8863593
-2.2098298 0.65106523 1.8596376 -0.037981797 1.012582 1.7147428 -0.29680306 -0.53878534
-0.28658432 -0.25443488 -0.8000397 -0.40549803 0.0518839 -0.6321858 1.0089315 0.03537773
-0.13474253 0.15592745 0.13388664 -0.030637246 0.16671073 0.042805392 0.007679311 -0.09283875
-0.33807412 0.13619056 0.07886589 -0.15065889 0.3648491 0.28668118 -0.06178271 -0.15574667
0.19322117 -0.36908832 -0.18257678 0.05920444 -0.25023597 -0.15915851 -0.43708414 0.25493518
-0.05264005 -0.0762108 0.24429378 0.054127138 0.36917037 0.3123513 0.338584 -0.08027558
-0.08644539 -0.19137684 -0.072550766 0.066465154 0.21084808 0.077338316 0.06702752 -0.121689424
0.044338167 -0.15816964 -0.132596 -0.0053540766 0.14271924 0.20684227 -0.060459968 0.04245767
-0.13410808 -0.12325755 0.010153194 0.028396975 0.26387426 0.2862801 0.060793906 0.13027665
0.0831255 0.09959736 -0.11347293 0.05494664 0.12776957 0.047305994 -0.08794344 0.2047099
-0.16826726 0.07903049 0.124172814 -0.15456754 0.033091526 0.21444833 0.39305753 -0.11697775
0.22461754 -0.15022619 -0.37224412 0.5395177 -0.16088346 -0.14122146 -0.33208358 0.24677996
-0.13833375 0.14451486 0.15306184 -0.072064385 0.34647432 0.279599 0.047550313 -0.13501042
0.15831353 -0.24952812 -0.14584169 0.2206759 -0.036155585 -0.14569703 -0.24509817 0.22136112
0.0045300988 -0.12690803 -0.21783707 0.32838136 0.09700958 0.015564248 0.2626276 0.3088708
-0.8651755 1.0993423 0.2842463 -0.982807 0.04960537 0.9941949 0.6647524 -0.91170007
3.4622838 -1.2106794 -2.202686 1.1261381 -1.4948891 -0.77236456 -0.88477725 1.7602775
-0.4441574 -0.30096114 -0.07976528 0.11689225 -0.16932729 -0.052122734 0.031056283 0.5360274

model.rnn.weight_hh_l0 f4 [24, 8]
00000000: 98bd 6541 a0f4 d43f 3af6 40bf 8b0d 1340
00000010: 5b20 7140 afe6 f0be 4287 5d3f 5734 433f
00000020: c8ca 94bf 56ff bfbf f5e9 0340 d861 a43d
00000030: 569e 40be 89b0 0ebf 9b6a 50bf 13fc a040
00000040: aa14 e5be 1192 8a3f cae6 98bf 702e 0dc0
00000050: 445e 35bc fc39 68c0 eba5 47bf a97a b53f
00000060: d28a 093f 94aa f0bf 1828 8840 53d6 c8be
00000070: d502 ebbd 0647 ca3f b27d 9bbf b59b 1040
00000080: 4616 e9bf c1cd 84bf 23d8 f4ba 6d0a d0bb
00000090: ef17 cbbd b93f 903f 2d52 5abe 7455 0f3f
000000a0: 0c92 fe3e 4893 d8bf 3dae a53e 0477 1cbe
000000b0: b001 b53e a3b0 d6be 304c 6fbf 9f71 0fc0
000000c0: 46a6 02c0 686e e93e 4f24 4d3f 330f b23f
000000d0: 7270 9c3f 7768 e63e 4742 31bf 47f2 0c3f
000000e0: 8a18 4840 a2fd 013f bf56 b7be 2450 ef3c
000000f0: fc93 4dbf 3b3c 5040 9404 413e aaee 9dbf
00000100: 89fc aabd ec34 40bf 8fce b93e b1d4 633f
00000110: b284 e5bf e936 f33e 6cbe 83be 050d b23f
00000120: 3d10 25c0 0b61 efbf 2df0 00bf c842 fcbe
00000130: f4d0 75bf 2007 ab3f 08b7 143d 061d aabe
00000140: 4f51 1d3f 4e8b 91be 1fca 30bf 859f 603f
00000150: 010a 05c0 0022 e33e 386a f93e 6f54 8640
00000160: 2e89 5040 b3f6 843f 21d9 b13e 078f 17bf
00000170: 02be 31bf 560e 21c0 7673 7fbe 7c05 26c0
00000180: 9ecf b1bf 44e2 233f 8b9c 5d3d c399 babe
00000190: 0dca ff3e c78c 8fbf d9aa e23d 5082 88be
000001a0: 85cc 32bf b6cb c6be 21bf fcbe 07cc 2dbf
000001b0: 8b26 21bf 69b5 00c0 075e d63d aed6 c2bf
000001c0: 8c01 0a40 eb5b 9abf e956 09be 6e7b 053c
000001d0: 2033 493f 016b adbf 0a5b 61bf 7dc0 1ac0
000001e0: 0c0a 6ec0 24df 883e 2dff 783f 6966 193f
000001f0: bc50 623f 384c 8abf 4de9 bfbe 4e8c 0abf
00000200: 8c73 fe3f 6be9 cb3d ff76 62bf 3f70 9b3f
00000210: f8ec d73f 33a0 48bf 2dc0 d63f 70f8 e7bf
00000220: 6277 f93e 5d3c 31bf 5ab6 b63e d644 cdbf
00000230: c781 2c3e ce6f 82be c6f6 ccbd 9a2d 81c0
00000240: 5fb0 11c0 87de 3f3f c6ed 75bf ae5b 163f
00000250: b76b 3ebf 4bb4 72bf 23f4 ef3d 1b70 5740
00000260: d7bd 1c40 6676 9ebd b362 323f 4542 d8bb
00000270: de81 1d3f 2b46 27bf d957 643e 6c31 5fbe
00000280: ade0 1dc0 d4cf 9f3e cc46 67be 9957 e2bb
00000290: 0bf2 aa3e 9c2d a3bf d363 4b3f 24d9 24be
000002a0: 7df1 4abf dc31 323d 70dc c63d 46d3 c1bd
000002b0: 923e 2f3e 473f b93f 95a8 21bf 4579 a2bf
000002c0: 0292 d6be d553 a1bf e05d f53d be25 92bf
000002d0: 57ec 483f 6474 6cbf ddc1 a63f b462 2d40
000002e0: c5aa 79bf 088f 3ebf 1e1a 5e3f 038a 20bf
000002f0: c912 be3e 1e8f 503f 7830 e6bf c2ac 1040
14.358788 1.6637154 -0.7537571 2.2977016 3.7675998 -0.47050998 0.8653451 0.7625174
-1.1624384 -1.4999797 2.0611546 0.08026475 -0.188104 -0.5573812 -0.8141267 5.030771
-0.44742328 1.0825826 -1.1945431 -2.2059593 -0.011069838 -3.628539 -0.77987546 1.4178058
0.5372745 -1.8802056 4.2548943 -0.39226016 -0.114751495 1.5802925 -1.2147734 2.2595036
-1.8209922 -1.0375291 -0.0018680136 -0.006348899 -0.09916674 1.1269447 -0.2132041 0.55989766
0.497208 -1.6919947 0.32359496 -0.15279776 0.3535285 -0.41931638 -0.9347563 -2.24131
-2.0413985 0.45592046 0.8013353 1.3910888 1.2221816 0.45001575 -0.69241756 0.55057186
3.1264977 0.5077764 -0.3580837 0.029213019 -0.8030393 3.2536762 0.18849403 -1.233846
-0.083489485 -0.7508075 0.36290404 0.88996416 -1.793112 0.4750283 -0.25731218 1.3910223
-2.579116 -1.870149 -0.5036648 -0.492697 -0.9602196 1.3361549 0.036307365 -0.33225268
0.6145219 -0.28426594 -0.6905841 0.8774341 -2.0787356 0.44361877 0.4871385 4.197807
3.2583728 1.0387787 0.3473597 -0.5920262 -0.69430554 -2.5165 -0.24946389 -2.5940847
-1.3891485 0.6401713 0.05410437 -0.36445436 0.4995884 -1.1214837 0.11067743 -0.2666192
-0.6984332 -0.38827294 -0.4936457 -0.67889446 -0.62949437 -2.0110724 0.10467153 -1.5221765
2.1563444 -1.2059301 -0.1341206 0.008147104 0.78593636 -1.354828 -0.8802954 -2.4179986
-3.7193632 0.26732743 0.9726437 0.5992189 0.8840444 -1.080451 -0.37482682 -0.5412034
1.9879012 0.0995663 -0.88462824 1.214363 1.6869192 -0.78369445 1.6777397 -1.8122692
0.48723894 -0.6923273 0.35685998 -1.6036632 0.16846381 -0.25475925 -0.10008006 -4.0368166
-2.2763898 0.74948925 -0.9606594 0.5873364 -0.7438311 -0.94806355 0.11716487 3.3662174
2.449087 -0.077374265 0.69681853 -0.006599697 0.61526287 -0.6534144 0.22299136 -0.21796197
-2.4668381 0.31213248 -0.225856 -0.006907415 0.3338779 -1.2748294 0.79449195 -0.16098458
-0.7927473 0.04350458 0.09710014 -0.09464125 0.17113712 1.4472436 -0.6314786 -1.2693259
-0.4190827 -1.2603709 0.11980796 -1.1417768 0.78485626 -0.923651 1.3027912 2.7091494
-0.975262 -0.74437 0.867586 -0.6271059 0.37123707 0.8146838 -1.7983541 2.2605443

model.rnn.bias_ih_l0 f4 [24]
00000000: 7c58 993e 109a 7d39 9029 9bbe fe5e e93d
00000010: 234d 08bf 2b93 d4be 16ef 8ebd c913 673b
00000020: d683 9b3f 8fca d03d 1b1d 12bf 427c 19bf
00000030: a3a7 da3f 4f29 d63f 8ed8 8dbf b024 2c40
00000040: 77e3 433e e84d 2a3e e351 af3e f9f3 81be
00000050: 2770 1c3f 7e56 323d c1a3 a73d 9391 ea3d
0.2995032 0.00024185353 -0.30305147 0.113950714 -0.532427 -0.4151853 -0.06979196 0.0035259596
1.2149608 0.10194885 -0.5707566 -0.5995523 1.7082409 1.6731356 -1.1081712 2.6897392
0.1912974 0.16631281 0.34242162 -0.2538145 0.6110863 0.043539517 0.081855305 0.11453547

model.rnn.bias_hh_l0 f4 [24]
00000000: c9db 2e3f b8cb f63b ebc3 00bf 10b7 80bd
00000010: 60d5 f8be 1ba1 3ebe d40f 82be d9a5 b2bc
00000020: a8af d03f 4c65 8d3e 83c7 03bf cf30 2dbf
00000030: aefb d63f 4ea3 ab3f 3450 8cbf d7a3 1640
00000040: 47a8 0cbf 5665 e3be a5d3 1a3f f831 a03e
00000050: 7375 7a3e 5062 1ebe 2e03 09bf 067f 123e
0.68304116 0.0075316094 -0.5029895 -0.062849164 -0.48600292 -0.18616144 -0.254027 -0.021807598
1.6303606 0.27616346 -0.51476306 -0.676526 1.6795557 1.3409212 -1.0961976 2.35375
-0.5494427 -0.4441325 0.60479194 0.31288123 0.24458866 -0.1546719 -0.53520477 0.14306268

model.rnn.weight_ih_l1 f4 [24, 8]
00000000: 5f5c 58c0 047d d4be b444 353f 0a8a e8be
00000010: 517b 9cbd cfeb 50be 6012 31be b337 1240
00000020: e4bc 7ebf 73c2 873e 848f 7d3f 58db b83f
00000030: 4e27 fdbc 980c 3a3e 5b11 a23e e42c af3f
00000040: 0c2f 9cbe c4fd bcbf cb3e a73f 8046 35bf
00000050: 903f febf 7b7e 143f 76b2 11bf 15fd 3540
00000060: 4b49 113f 5489 a8bf ec86 953f c475 a4be
00000070: 8505 50c0 71e8 1840 1cde 8ebf d453 a9bf
00000080: bfb3 86be c1a3 833e e5fb b33f 7daa aabe
00000090: 28df 7cbf e59f ff3f c755 d5be 809a 283f
000000a0: e861 773e 0f10 0e40 cf05 95bf 342c 283f
000000b0: 9ee7 10c0 11e2 7b3f fa3f 7f3f 87db 32c0
000000c0: fef8 ad3c d7dd 813f 0557 6b3f bbb9 613d
000000d0: 1a87 8abf 3837 f8be a631 873d 2dd5 37bf
000000e0: c062 c1be 0768 38bf 0d6d 7b3f ab72 71bf
000000f0: 6539 6fbe 029f b03c 34dc 01bf 8135 6bbf
00000100: 6d02 8ebf a718 04be d253 843f 55ac e63c
00000110: e1c0 e53d 42bb c8bd 5396 69be 8e54 73bf
00000120: f691 45bf 9ef5 26be 8d7a 983d ef21 813f
00000130: f0fe 0e3f 4ef7 26be dba3 1a3e 2cb4 16be
00000140: dbe6 4a3f bfab d9be fbd6 dc3e f958 e13e
00000150: 6b3d 613f 296f 87bd b4bf 11be 6306 e4be
00000160: 22e0 2abf 93cf 043e 8b3a 083d a093 b23e
00000170: 248d 783f c718 ecbe de2f 683c 4796 bb3f
00000180: 797b 943d 2d47 953e 3201 7f3d 0045 ee3d
00000190: 4bcb 2e3f cf91 ba3d 751d 8bbd 8d93 ff3e
000001a0: aec4 8f3f 5920 073e 1c3c d43c 974f 483f
000001b0: cc79 cfbe a601 55bf 8923 753e aa20 2c40
000001c0: 24c5 70be 561a 96be 968e 6b3f bbc9 303d
000001d0: 6fca 40be 7c3a 0e3f 595a e3be 6e7c 663f
000001e0: c1bf 49bf 81de afbd cad7 e53e 946c d73e
000001f0: 3523 9bbe 4bfc 283d 186b 6a3e b81b ad3c
00000200: f884 24bf efa6 9a3e 43a2 75be 639c a73e
00000210: ead0 333f 3d29 c3be 9b5f 8a3e 9e48 c03c
00000220: 7719 433e 4206 26bd a451 89be a4a7 fd3e
00000230: 0afb 473f 7325 21bf 22a5 6e3e 78f9 debe
00000240: 9b7e 343e 5243 2dbd 2214 08bf 3970 3a3d
00000250: 9021 7a3e 7fd9 c4be 4f81 5a3e 47ea 21bf
00000260: 8751 a83e 27d9 af3e 8d62 95be 5214 ac3e
00000270: b475 003f b6b3 13bf 14d1 a13e b830 643e
00000280: 4fa3 bcbe b7aa 77bc 48c3 443f a4b2 e9bd
00000290: 176a 58bf de98 203f cc8c 8abe 473f f83e
000002a0: 4e5e b13d 87b6 f5be d702 fd3e f0fe a5be
000002b0: 6fec 0f3e 7323 93be 9626 bebe 775a 1ebd
000002c0: be29 8dbe f6e7 edbe e539 063f d37f d0be
000002d0: 0fe7 2abf 3ab3 eebb 9d52 50be 3ead 3840
000002e0: c94a 6abd c15a ccbe 134d e23e 5124 dbbe
000002f0: 95bb 3abf a9a8 8f3e 8a38 8fbe c3e3 663f
-3.380638 -0.4150163 0.7080796 -0.45417815 -0.07640708 -0.20402454 -0.17292166 2.2846496
-0.99506974 0.2651554 0.9904711 1.4441938 -0.030902531 0.18168867 0.31653866 1.3685575
-0.30504644 -1.4764943 1.3066038 -0.708107 -1.9863148 0.58005494 -0.56912935 2.843572
0.5675246 -1.3166909 1.16818 -0.32121098 -3.250337 2.389187 -1.1161532 -1.3228707
-0.2630901 0.25710872 1.4061247 -0.33333197 -0.9877801 1.9970671 -0.41667005 0.6586075
0.24158442 2.2197301 -1.1642398 0.6569245 -2.2641368 0.98391825 0.99706995 -2.794649
0.021236893 1.0145825 0.91929656 0.055108767 -1.082248 -0.4847963 0.066012666 -0.71809655
-0.37770653 -0.72033733 0.98213273 -0.94315594 -0.23361738 0.021560196 -0.5072663 -0.91878515
-1.109449 -0.12900029 1.033808 0.028158346 0.11218429 -0.098013416 -0.2281125 -0.95050895
-0.77175844 -0.16304633 0.0744525 1.0088481 0.55857754 -0.16305277 0.15101568 -0.14717168
0.7925851 -0.42513844 0.43132767 0.44013193 0.8798434 -0.06612999 -0.14233285 -0.44536123
-0.6674825 0.12969808 0.033258956 0.34878254 0.97090364 -0.46112654 0.014171569 1.4655236
0.07250113 0.29155865 0.062257 0.116342545 0.6827895 0.09109842 -0.06792728 0.4991726
1.1231897 0.13195933 0.025907569 0.78246444 -0.4052261 -0.8320564 0.23939337 2.6894937
-0.23512703 -0.29316968 0.92014444 0.043161135 -0.18827222 0.5555799 -0.44404867 0.90033615
-0.7880822 -0.08587361 0.44891196 0.42075026 -0.30300298 0.04125623 0.22892416 0.021131381
-0.64265394 0.30205485 -0.23987679 0.327365 0.7024065 -0.381174 0.27026066 0.023472127
0.19052683 -0.04053331 -0.268201 0.49541962 0.7811743 -0.6294777 0.2330518 -0.43549705
0.17626421 -0.04230053 -0.5315572 0.04551718 0.24426866 -0.38447186 0.2133839 -0.63248104
0.328747 0.34345362 -0.2917675 0.33609253 0.501796 -0.5769609 0.31604826 0.2228421
-0.36843345 -0.015116385 0.76860476 -0.11411026 -0.8453688 0.62733257 -0.27060544 0.48485777
0.08660565 -0.4799082 0.4941623 -0.32421064 0.14055036 -0.28737983 -0.37138814 -0.038660493
-0.2757091 -0.46466035 0.5243209 -0.40722522 -0.6675882 -0.007284549 -0.20344014 2.8855739
-0.057200227 -0.3991299 0.44199428 -0.42801145 -0.7294248 0.28058365 -0.27972823 0.90191287

model.rnn.weight_hh_l1 f4 [24, 8]
00000000: 95f7 7d3f 90de 763f b54c 403f 34ba 383b
00000010: 4c89 173f 5835 abbf fc1c 27bf 26dd 9d3f
00000020: 8ff0 dcbe e111 783d 3a46 06c1 303c 84be
00000030: d3ce 99bf d29a 74bd 560a c83e dc13 a8bf
00000040: 7340 003f 977e 2dbe 15ba cabe a5bb 653e
00000050: 99bd 18bf b69f 13be 6fb9 7bbc 41f2 753e
00000060: cb5f 88bf db58 46bf cafd 6440 d151 01c0
00000070: 52c4 413f 1a04 373f 56a7 c53f dec7 7b40
00000080: ccf7 92bf 5e79 163f 0b17 1e40 403f 6bbf
00000090: de41 aa3f dbdb 263f 7c79 d3bf ec06 a03e
000000a0: 1f0f 3f40 26b8 56bf eb31 a0bf ce97 2a3f
000000b0: 3488 d0bd 4292 8140 675e 1840 7bc0 0b3f
000000c0: 8fcb f4be 0fdb 43bf 0828 4b3f c841 39bf
000000d0: 82bc 953e ec89 e33e c44c a63c 8ea0 08c0
000000e0: 2b25 8cbd 8f0d 813f 1a1e 4b40 6b47 c73e
000000f0: cb09 27bf 6681 203f 91e7 503f d264 7d3f
00000100: 9b19 a7bf 5c37 13be 69d9 0e40 b63e bd3f
00000110: b13b d53e b671 0c40 afe9 13c0 13ac cbbe
00000120: a0cc 74be c213 53bf e6e6 0dc0 0c36 823d
00000130: e348 e9bd 0260 203f 4dee ed3e f155 b2bf
00000140: a3d1 ee3f aa64 0c3f cd5e 5b3f 2c37 3cbf
00000150: fe73 d83f a73b 2d3f 82b6 2ac0 415b a23f
00000160: c1c9 1a3f 1ac7 83bf b209 0dc0 c6e5 df3e
00000170: d642 9cbf c5d6 a43e cef0 d03e b2bc b7be
00000180: 7a02 ee3e 51de 20bf 85b2 0fc0 8b10 49bf
00000190: b7d7 d8bf 8768 643f 3a57 393e 9024 6ebf
000001a0: f5b6 5dc0 5b37 4dbf a383 0a3d 5fa6 af3f
000001b0: 05fb 0640 9be4 8f3e 8273 f6bf ccc9 ffbf
000001c0: 08d0 583f 3bbc 023f 096b 2440 c7b2 8bbe
000001d0: f14d 0140 524d 013c 494d c1bf f6bc f53f
000001e0: 695d 223f 34a6 5f3f ebca 8b3f 249b adbf
000001f0: 0b2b efbe 6248 8bbe ae2c 5f3f 38e5 aebe
00000200: 5039 893f b5ac 11bd ec4a c6bf 3c11 21bf
00000210: 8ac4 c0bf b914 71bf 9bd1 cc3f 18a4 1c3f
00000220: 1b0f 17be 2c76 39c0 7c5b fc3d e8f4 11be
00000230: 953e 12be 2dfb 8e3e 43e2 73bf 88ee 8b3e
00000240: 1b30 463e bde4 bebf 9851 c93f 1252 513d
00000250: 6e55 b53f 42c1 813f e0f2 0fc0 84e4 3f3f
00000260: 19c4 fd3e 9c20 133f 9be5 dfbf 8bbf 72bf
00000270: 99d8 5abf a3b2 0bbf 7c11 943f d676 d0bd
00000280: ea54 53bf 7072 793f 1db2 e63e 98c4 b83d
00000290: 1a5b 83be 2ecb 2abf 646e 8f3f 6170 3f3f
000002a0: 8d0b 3d3f d465 5fbf 9566 b0be 45ea d4be
000002b0: e4b4 74bf 27e4 a43f b3b1 98be 61d1 cc3f
000002c0: 835e 3fbe 9352 e43e 0680 dc3f e5e7 463f
000002d0: 16ba 1abf bd33 333e 988d 9d3f ab3d d93f
000002e0: 2160 823e 7ec1 9ebe 0cdd 7b40 0d4c 85bd
000002f0: 0f8f a73c 18ad ab3e d852 633e b4a7 c73e
0.99205905 0.96433353 0.75117046 0.0028187158 0.59193873 -1.3375654 -0.652786 1.2333114
-0.43152282 0.060563926 -8.392145 -0.2582717 -1.2016243 -0.05971796 0.39070386 -1.3131061
0.5009834 -0.16942821 -0.39595094 0.22434862 -0.59664303 -0.14416394 -0.015364035 0.24018194
-1.0654234 -0.7747933 3.57799 -2.0206187 0.75690186 0.71490633 1.5441692 3.934074
-1.1481872 0.5877894 2.4701564 -0.91893387 1.3301351 0.6517922 -1.6521449 0.3125528
2.985298 -0.8387474 -1.2515234 0.66637886 -0.10182229 4.0491037 2.3807619 0.54590577
-0.47811553 -0.7650613 0.7935796 -0.72366 0.29245383 0.44441164 0.020300277 -2.1347995
-0.06843027 1.0082263 3.1737123 0.38921675 -0.6524932 0.62697446 0.8160334 0.98981965
-1.3054689 -0.14376587 2.2320197 1.4784763 0.41647103 2.1944404 -2.311138 -0.3977972
-0.23906183 -0.82452023 -2.217218 0.06357965 -0.11390855 0.62646496 0.46470872 -1.3932477
1.8657726 0.548411 0.8569153 -0.73521686 1.6910398 0.6766915 -2.6673894 1.2684098
0.604641 -1.0295136 -2.2037168 0.4372999 -1.2207897 0.32195106 0.4080872 -0.3588615
0.46486264 -0.6283923 -2.245271 -0.7854087 -1.6940831 0.89221996 0.1809968 -0.9302454
-3.4642918 -0.8016259 0.033816945 1.3722647 2.109071 0.281041 -1.9254 -1.9983459
0.8469243 0.51068467 2.569033 -0.27284834 2.0203822 0.00789197 -1.510171 1.9198291
0.6342378 0.8736298 1.0921301 -1.356297 -0.46712527 -0.2720366 0.8717755 -0.34159255
1.0720615 -0.035565097 -1.5491614 -0.6291692 -1.5059979 -0.94172245 1.6001467 0.6118789
-0.14751856 -2.8978376 0.12322137 -0.1425358 -0.14281686 0.27926007 -0.95267123 0.27330422
0.19354288 -1.4913555 1.5728025 0.05110366 1.4166696 1.0137103 -2.249199 0.7495806
0.49563673 0.5747163 -1.7491945 -0.9482352 -0.8548675 -0.54569453 1.1567836 -0.10178916
-0.82551444 0.9744024 0.45057765 0.09021872 -0.25655442 -0.6671628 1.1205564 0.7478085
0.7384575 -0.8726475 -0.34453264 -0.41584983 -0.9558852 1.2882127 -0.29823074 1.6001397
-0.18688397 0.4459425 1.722657 0.7769759 -0.60440195 0.17500205 1.2308836 1.6971945
0.25463966 -0.31006998 3.9353666 -0.06508646 0.020453958 0.33530498 0.22199571 0.38995135

model.rnn.bias_ih_l1 f4 [24]
00000000: 21da 81b8 d9a7 52be 97ed 24bf ebc1 2e3f
00000010: b691 73bd 59ef b13e 17ae 8b3b b2fb d33d
00000020: 1d9b c5bf e276 2b3e 7934 1bbf a7df 65be
00000030: a571 e4bd c1fb ed3f d9ce db3f f1b4 8f3e
00000040: d13a 703f 1d3f 02bf 7956 70bf 4b46 3c3d
00000050: da15 a83f c9bd 18bf c481 17be f1fc c7bd
-6.191829e-05 -0.20571841 -0.64425033 0.68264645 -0.059465133 0.3475292 0.0042626965 0.103507414
-1.5437962 0.16744569 -0.6062694 -0.22448598 -0.111544885 1.8592454 1.71725 0.28067735
0.93839747 -0.50877553 -0.93881947 0.045965474 1.3131669 -0.5966459 -0.14795595 -0.097650416

model.rnn.bias_hh_l1 f4 [24]
00000000: ffbc 653e 6b4d 02bf 9f36 5ebf 7613 373f
00000010: 3bd4 143e 4355 4b3d 4d41 c839 2cfc aabd
00000020: 380d aebf b849 07be b695 f9be efce b3be
00000030: ff24 fcbd 1f2e 0340 1fcd c83f 022f 743f
00000040: 5612 403f a66b acbf 394c 28be 8d17 983f
00000050: 3ad3 9b3e 4320 323f d4a3 dcbc 7364 bfbd
0.22435378 -0.5089938 -0.86802095 0.7151407 0.14534084 0.04964186 0.00038195626 -0.08348879
-1.3597784 -0.13211715 -0.48747033 -0.35118815 -0.12311744 2.04969 1.5687598 0.9538423
0.7502798 -1.3470352 -0.16435327 1.1882187 0.3043459 0.6958048 -0.026933588 -0.09345331

model.out_layer.weight f4 [8, 8]
00000000: b2d0 92bd 398b 73be 912b 89be c50a debd
00000010: d8d8 683e b3b9 303d 45e1 463e 3286 2e3e
00000020: acb4 f03b e4c8 9ebd a317 59bd d7e5 31be
00000030: a59a 613d 8854 c43d 4fa2 8bbe 5fa6 f03d
00000040: d03f 5e3e f894 4b3e 2c6e 94bd 24f1 633f
00000050: 7d90 25be 0e6c 3cbe a520 f2bd 3204 ffbe
00000060: 01a1 6ebe 18c7 d8bd 9770 9b3e 671b b1be
00000070: ba0e 863d fa59 a8be c363 27bd f80f 113c
00000080: e2ed dd3d 646f a9bb f50e e2be 6c88 8d3e
00000090: 147a fd3d 8d10 4dbd 1027 81bd c3eb 45be
000000a0: 3e5e 0f3f 6787 0a3e 1689 61bf c2df 463f
000000b0: 3ec4 c1bd efc1 a6bd f6d7 1bbe c5a3 aabe
000000c0: d191 0cbd f46c 75bf dba4 9c3d 4d86 6fbe
000000d0: b943 5a3f e932 5f3e b139 8b3d 9f5e 933e
000000e0: 0148 c7bd 84aa 19be 02d1 c63e 595a 603d
000000f0: 4ea3 3a3e ffeb 62be 041f 593e 0b47 c63e
-0.07168712 -0.23783578 -0.2679105 -0.10841898 0.2273897 0.043145847 0.19421871 0.17043379
0.0073457565 -0.077531606 -0.053001057 -0.17372833 0.05507912 0.095864356 -0.2727227 0.11750483
0.2170403 0.19881046 -0.07247576 0.89039826 -0.16168399 -0.18400595 -0.11822633 -0.49807888
-0.23303606 -0.10584849 0.30359337 -0.3459122 0.065457776 -0.32881147 -0.040866625 0.008853905
0.10836388 -0.0051707495 -0.44152036 0.27643144 0.123768 -0.050064612 -0.06306279 -0.19328217
0.5600318 0.13528214 -0.880998 0.7768518 -0.09461258 -0.08142459 -0.15219101 -0.3332807
-0.03431875 -0.95869374 0.07648631 -0.23391075 0.85259587 0.21796764 0.06798113 0.28783128
-0.097305305 -0.15006453 0.38831335 0.054773662 0.18226358 -0.22160338 0.21203238 0.38726076

model.out_layer.bias f4 [8]
00000000: e5b7 163f a972 8ebf b273 5b3f 513e d03f
00000010: b567 a3bf 8950 123e 6982 393f 9311 ba3f
0.5887435 -1.1128742 0.8572341 1.6269017 -1.2766024 0.14288534 0.72464615 1.4536613

model.linear_sim.weight f4 [265, 8]
00000000: 8cbf 623f a20e 5dbf 4e45 33bf dcf9 5bbf
00000010: 1f5c a73f 5ce5 33bf f94f 3c3f 562e 58bf
00000020: 4bac 3b3f 4393 51bf c5f9 1bbf 3caa 1ebf
00000030: d024 163f 6eda 14bf 9350 2f3f 0c88 23bf
00000040: 62e9 ac3f 1b13 4fc0 c8cc 97bf 7191 a9bf
00000050: 7d65 953f 046b 0ac0 cb84 763f ad77 94bf
00000060: 8625 3a3f 2346 31bf e8ce fdbe ed27 0ebf
00000070: a926 403f 95f2 43bf a40b 283f 494c 2abf
00000080: 8643 173f 4a92 25bf 53e8 00bf 73d9 2bbf
00000090: 8100 1e3f 1703 38bf 76ba 6e3f c4e4 0abf
000000a0: 162d 393f d400 48bf 74a8 1dbf b84d 3fbf
000000b0: f610 3b3f 4b9f 23bf 558e 243f 0e7b 30bf
000000c0: dd12 173f 84b4 d0be 9385 46bf 43af 64bf
000000d0: e16a e13e 4c00 72bf 8078 fe3e 191d 6abf
000000e0: 4aaf 433f 7ee3 6dbf f2e0 21bf 428a 2bbf
000000f0: d7a2 4e3f a886 20bf 66b0 473f e60f 1bbf
00000100: 08bb 593f 002c a1bf 6d91 05bf 3c8f 27bf
00000110: 1f40 323f 88df 4dbf a207 423f 11d2 19bf
00000120: adf7 3b3f 0240 32bf b7f4 0fbf c5a2 1ebf
00000130: 0037 bd3e d950 2abf 902a 1b3d fe41 1ebf
00000140: a2be 3b3f 3111 70bf 1f3d c1be 7dec 0dbf
00000150: 7c34 283f 85cc 95be 05eb 563f 760a 23bf
00000160: 3fc8 473f 537c 4fbf 5cf9 18bf e075 21bf
00000170: 6c54 203f fbbc 30bf 17ab 233f 3342 23bf
00000180: c62d 353f 1c5c 46bf dfd5 33bf 4c7d 4bbf
00000190: 494e 233f 046f 58bf c854 423f 5de3 19bf
000001a0: 61b6 2b3f e282 46bf 32e1 30bf c429 0bbf
000001b0: 9982 3e3f d2f8 05bf 2df6 833f d391 cabe
000001c0: d236 223f 038b 37bf 7c12 00bf d90d fabe
000001d0: 09c8 163f 7a01 2fbf 8df5 233f 5d6a 1abf
000001e0: 3a75 433f 2383 40bf d2ca 37bf 14e7 57bf
000001f0: 43fa 5b3f 3e3b 45bf 0a68 443f 14b7 57bf
00000200: 8bbf 403f a151 61bf 5210 24bf 9bf2 2cbf
00000210: 32e3 3b3f f54d 2cbf b041 243f c8d5 22bf
00000220: ed87 403f 879c 46bf bbac 31bf 05f9 59bf
00000230: a0bb 383f d97d 3fbf 3752 5b3f 80ab 48bf
00000240: 7906 263f f4ef 33bf e680 18bf 30d6 3dbf
00000250: 3e9d 4a3f f23c 22bf 91ee 3f3f d5f3 35bf
00000260: 3d75 c73e 465a 1cbf 7eed 16bf 380f 0fbf
00000270: 440d d03e 0aa4 dfbc 7ecf 713d 31d6 3abf
00000280: dbd9 123f 563c 40bf a7e5 12bf 2653 07bf
00000290: 4f58 023f 30c6 31bf 32dc 1d3f 1cb0 0cbf
000002a0: e25f 403f 21ff 3bbf 9d7e 19bf 9f77 14bf
000002b0: 8181 373f b622 1ebf 96fb 693f 2018 12bf
000002c0: 3caf 243f 00aa 15bf 7a0d 01bf 5b6f 22bf
000002d0: 4650 383f 6aa7 11bf ecd3 343f e735 24bf
000002e0: 8581 7f3f 14f1 cbbf 963e 20bf c3fc 3bbf
000002f0: 762a 433f 5c5e 48bf 046d 343f f73d 31bf
00000300: f30a 093f cb74 13bf 71c7 1dbf c318 34bf
00000310: 1b61 233f e4a3 04bf 341c 153f 0244 14bf
00000320: 65ea 623f 4af5 acbf 9c79 35bf 3b02 42bf
00000330: a31e 433f 318a 35bf f1c2 393f e931 2cbf
00000340: dba6 443f d679 9cbf c151 0ebf 8153 45bf
00000350: 07e2 553f 1f0f 37bf d690 643f 875d 20bf
00000360: 17c4 2d3f cf7e 48bf 7f6d 3dbf b717 51bf
00000370: 2381 603f 620f 41bf 32db 633f 72de 35bf
00000380: 5b65 723f 3543 a3bf 5019 22bf 0df2 30bf
00000390: 9920 553f b2e3 4fbf cd71 4d3f 5c9f 25bf
000003a0: e7bd 3d3f 190f 4cbf 42a4 0abf 2143 22bf
000003b0: dce9 443f 0610 2ebf 7f2b 183f 2bed 48bf
000003c0: 27a5 433f d3fc 4dbf 7a46 14bf c555 2fbf
000003d0: b9f7 383f 4da9 31bf 605b 243f 2438 27bf
000003e0: a545 1a3f ddae 1ebf dd0c 02bf 873c 16bf
000003f0: b392 d83e 7f67 30bf 36bd d63e ffa2 23bf
0.8857353 -0.8635045 -0.70027626 -0.8592813 1.3074988 -0.7027185 0.7355953 -0.84445703
0.73309773 -0.8186533 -0.60927993 -0.6197851 0.5864992 -0.581458 0.6848232 -0.63879466
1.3508723 -3.235541 -1.1859369 -1.324751 1.1671597 -2.1627817 0.96296376 -1.1599022
0.72713506 -0.69247645 -0.4957192 -0.5552967 0.7505899 -0.76542026 0.6564276 -0.6652265
0.5908741 -0.64676344 -0.503545 -0.67128676 0.6171952 -0.71879715 0.93253267 -0.5425532
0.7233442 -0.78126264 -0.61585164 -0.74727964 0.73072755 -0.63914937 0.6427968 -0.68937767
0.5901316 -0.40762722 -0.7754757 -0.8932993 0.44026855 -0.94531703 0.4970131 -0.9145065
0.76439345 -0.9292525 -0.63233864 -0.6700784 0.80717224 -0.6270547 0.7800354 -0.60571134
0.8505101 -1.2591553 -0.5217503 -0.65452933 0.6962909 -0.80419207 0.75792897 -0.6008616
0.734248 -0.6962892 -0.5623278 -0.61967117 0.36956024 -0.66529614 0.037882388 -0.61819446
0.7333776 -0.9377623 -0.37741944 -0.5543898 0.65705085 -0.292576 0.8395236 -0.6368784
0.78039926 -0.8104908 -0.5975549 -0.6307049 0.6262882 -0.6903836 0.6393294 -0.63772887
0.7077297 -0.774843 -0.70248216 -0.7948806 0.6379133 -0.84544396 0.75910616 -0.60112554
0.67075163 -0.7754346 -0.6909362 -0.54360604 0.74418026 -0.52332795 1.0309502 -0.3956438
0.633649 -0.7169649 -0.50028205 -0.4883869 0.5889898 -0.6836163 0.64046556 -0.6031855
0.7635075 -0.752001 -0.71793854 -0.8433697 0.85928744 -0.7704352 0.7672125 -0.8426373
0.7529227 -0.8801518 -0.640874 -0.67557687 0.7339355 -0.67306453 0.6416273 -0.63607454
0.75207406 -0.7758259 -0.6940419 -0.851456 0.72161293 -0.74801403 0.85672325 -0.7838669
0.64853626 -0.70288014 -0.59571683 -0.7415495 0.7914618 -0.63374245 0.749734 -0.71075183
0.38956633 -0.61075246 -0.58956134 -0.55882597 0.4063512 -0.0272999 0.05903577 -0.7298308
0.5736367 -0.75092065 -0.5738167 -0.5286125 0.50916 -0.69443035 0.61664116 -0.5495622
0.75146306 -0.7343617 -0.5995882 -0.5799503 0.7168198 -0.61771715 0.91399515 -0.5706806
0.64329886 -0.58462524 -0.5041119 -0.63451165 0.7199749 -0.5689608 0.7063587 -0.6414475
0.99807006 -1.5932946 -0.625955 -0.7343256 0.76236665 -0.7826898 0.70478845 -0.69235176
0.5353233 -0.57600087 -0.6163245 -0.70350283 0.63820046 -0.5181258 0.5824616 -0.5791627
0.8863891 -1.3512356 -0.70888686 -0.75784653 0.7621862 -0.7091399 0.7256308 -0.67263657
0.768171 -1.2224681 -0.55593497 -0.7708054 0.83548015 -0.7150745 0.892835 -0.6264271
0.67877334 -0.78318495 -0.739952 -0.8167681 0.87697047 -0.754141 0.8900634 -0.7104255
0.94685906 -1.2754885 -0.63319874 -0.6911934 0.83252865 -0.8120681 0.8025177 -0.6469629
0.74117893 -0.7971054 -0.5415689 -0.6338368 0.7691934 -0.679932 0.5944137 -0.7848689
0.7642388 -0.80463904 -0.5792004 -0.6849025 0.72252995 -0.6939896 0.6420193 -0.6532004
0.6026252 -0.6198557 -0.5080088 -0.5868611 0.42299423 -0.6890792 0.4194123 -0.6392059

model.linear_sim.bias f4 [265]
00000000: 3c51 b43f 900f 843f b833 483f faff 283f
00000010: 5054 b13f 1aa6 5c3f 7344 873f 9482 583f
00000020: 5923 a83f 4fb1 d93f 9488 c93f 09dd 4e3f
00000030: 9eff c03e eb7e 083e fe66 353f 695b 283f
00000040: 3baa 5a3f bdcc 123f 19c8 003f 6350 d63e
00000050: b47b 133f bda6 863f 0ce7 153f de5e af3f
00000060: e6e2 c23d 36c8 aa3f 4393 3d3f ae72 dd3e
00000070: 9cd8 c73f 174f 443f 8b32 343f 9831 dd3e
00000080: c832 273f e1bf e1be e926 003f f05e 7f3f
00000090: 0000 583e 614f 0d3f 6030 f33f 8b71 d03f
000000a0: db5f 303e 8e07 3c3f 7ba0 3c3f 254b 103f
000000b0: afb0 173f 27a2 fb3d 6d55 3b3f 5dd1 9dbd
000000c0: b2ec 483f 2ef9 b93e 56a5 6a3f db7a 603f
000000d0: c7f6 343e 741e 14bf 4a17 8c3f 906b 9fbe
000000e0: 9e9a 063f 31b0 1d3f 55d4 9ebd 1875 d93e
000000f0: 06f6 923d a093 af3e 6a05 5b3f 3d62 213f
00000100: a17b 753f b4f5 823f df4a 973e a0b2 043f
00000110: d4bf fd3e 87ef 7abd 1d6f 1240 b8d9 9e3e
00000120: 0c25 f83e c770 97be 5855 7f3e 8b46 9cbd
00000130: 5be8 883f 54df a03f 929d ad3d 22cf 993f
00000140: 1727 4e3f ffa4 24bd 605b 823e 58be 343f
00000150: 7251 513e f2dc ef3d 64bd dc3e 185f 443f
00000160: 79a6 8a3f c0fc 0e3e e6bd ecbe db2f 253d
00000170: f916 503e 465c 923f f354 9e3e 4fd5 4e3d
00000180: a1c7 d23e 4925 e33f b6a5 403f a6c1 a5bd
00000190: 70f7 8cbe c0bf 943f f401 8dbd f44a 1140
000001a0: 5ea9 063f ac48 43be f725 ce3f f45e d23e
000001b0: 2867 743f 6dab 863f 4a84 52be cafe ba3e
000001c0: 49e0 b03f c88f cdbe 19cc 353f ff71 4dbd
000001d0: 4bf6 313f d0c3 da3f 6648 9c3e 8e80 093e
000001e0: b573 d13e d70b d9bc 6e52 983e d326 683f
000001f0: 1b6f 683f a26c c13f 63b5 733f 5541 c63f
00000200: f1dd f0bc 0a5f 8a3f 808d 0e3f 73c6 723f
00000210: a119 b23f c666 2a3f ab40 b03e 452f 8f3f
00000220: faae 7b3f 7792 583f 8b8f fb3e 9e0d a63f
00000230: 272b c63f 8926 86bf 0c0d 16be aaeb a7bf
00000240: 0dee a7bf 3927 f3bf 5104 0ebf 5386 223f
00000250: 1d35 0840 c74f cabf b5ab 0740 4a04 fcbf
00000260: cc96 39be 83d7 083f 7581 93bf 8ee6 6bc0
00000270: ca04 d93f c564 723d 123b 243f bf44 eabf
00000280: 498c 99bf aa90 823f 14e9 dfbf db4c e6be
00000290: 8eea b23f f3bf da3f c69c 9abf 936e 98be
000002a0: 181c ddbe 0e26 543f e9ac c1be 7239 31bd
000002b0: 92ad 2dbf 8ceb 5c3f f384 ca3f cc00 433f
000002c0: 3af3 973f 731c 89bd 7c71 2f3f adbd 39be
000002d0: fb70 4abe 314f 49bd d996 49bf 95a8 c93f
000002e0: cda8 843e 9bfb b43e 1bba 1ebf 0833 4fbe
000002f0: 8bd6 8b3e b0ef 653e c8ef a13f 89c4 0bbe
00000300: faa0 2fbf ccee e43e 83b9 1f3e dd59 1040
00000310: a8e8 4abf 3de4 513d d469 1ebf 0499 9e3f
00000320: b5d1 793e 9809 583e 3f73 ac3f d089 633e
00000330: 4713 d03d 0cf8 d6bb 8344 fe3e 4873 b63e
00000340: 7def a53e dc94 ce3e b1c2 e4be b3f9 e7bd
00000350: 7769 ed3e e4f1 813f 83f6 b93f 3032 5140
00000360: 55e2 c63f 9a0b 513f 9fb3 543f 19a4 b33f
00000370: 19c9 38bf 149e 08be 7a51 dcbf a993 b2be
00000380: 4071 cdbf 8ca3 473f e18e d3bd 8aa0 f43e
00000390: 89ac b2be 83d2 123f b09b 81bf 418f 8040
000003a0: 0311 d13f 4b52 1e40 2311 483e 4c87 db3f
000003b0: 621a 183e 528f 483f 3766 803e c555 8dbf
000003c0: 8ee8 0fc0 2cec 7cbd 2893 b8bf 8f72 983f
000003d0: 4ed2 d8bf 093c b6be 33bc 063f 218d 2e3f
000003e0: 3777 a1bf 9799 f73d a50c d6c0 37e0 a33f
000003f0: 774b cc3f a71e 103f e34c 0b40 eb63 1ec0
1.4087291 1.0317249 0.78203917 0.6601559 1.3853855 0.8619095 1.0567764 0.84574246
1.3135787 1.7007235 1.5744805 0.8080602 0.3769502 0.13329665 0.7086028 0.6576448
0.85416 0.57343656 0.50305325 0.41858205 0.5761063 1.0519634 0.58555675 1.3700826
0.09515934 1.334235 0.7405283 0.43251556 1.5612979 0.7668318 0.7038962 0.432019
0.6531186 -0.44091704 0.5005937 0.9975424 0.2109375 0.5519925 1.8999138 1.628465
0.17224066 0.7344903 0.73682374 0.5636466 0.5925397 0.122867875 0.73177224 -0.077059485
0.7848617 0.36322922 0.9165853 0.8768746 0.17672263 -0.5785897 1.0944607 -0.3113675
0.5257968 0.6159697 -0.07755343 0.42472148 0.071758315 0.34292316 0.85555136 0.63040525
0.9589177 1.0231233 0.2954931 0.5183506 0.49560416 -0.061263587 2.2880318 0.3102548
0.48465765 -0.2957823 0.249349 -0.076306425 1.0695909 1.2568154 0.0847732 1.2016337
0.80528396 -0.040196415 0.2546034 0.7060294 0.20441225 0.11712064 0.43113244 0.767076
1.0832053 0.13963604 -0.4623863 0.04032884 0.20321263 1.143441 0.30924186 0.050496396
0.4116793 1.7745754 0.75252855 -0.08093576 -0.2753253 1.1621017 -0.06885138 2.2701998
0.52602184 -0.19070691 1.6105336 0.41088068 0.95469904 1.0521065 -0.20558277 0.36522514
1.3818446 -0.4014876 0.71014553 -0.050157543 0.6951644 1.7091007 0.30523986 0.13427946
0.4090859 -0.026494903 0.2975039 0.9068424 0.90794533 1.5111277 0.9519865 1.5488688
-0.029402705 1.0810254 0.5568466 0.9483406 1.3914071 0.6656307 0.34424338 1.11863
0.9831387 0.8459849 0.49132952 1.2972906 1.5481919 -1.048051 -0.14653414 -1.3118794
-1.3119522 -1.8996345 -0.55475336 0.6348621 2.1282418 -1.5805596 2.1198552 -1.9688809
-0.1812393 0.53453845 -1.1523882 -3.685947 1.6954587 0.059178133 0.64152634 -1.830223
-1.1995937 1.0200398 -1.7493005 -0.4498051 1.397783 1.7089828 -1.2079093 -0.2977186
-0.43185496 0.82870567 -0.37827232 -0.043267675 -0.6784297 0.86296916 1.5821823 0.7617309
1.1871102 -0.066948794 0.6853254 -0.18138762 -0.19769661 -0.04914779 -0.787458 1.5754572
0.25910035 0.3534821 -0.62002724 -0.2023431 0.2731212 0.22454715 1.26513 -0.13649191
-0.68605006 0.44713438 0.15598111 2.2554848 -0.79261255 0.051243056 -0.6188023 1.2390447
0.24396403 0.2109741 1.347267 0.2222054 0.10159927 -0.006560331 0.49661645 0.35634828
0.32409278 0.40347946 -0.44679788 -0.11326923 0.46369526 1.0151944 1.4528354 3.2686882
1.5537821 0.8165833 0.8308658 1.4034454 -0.7218185 -0.13341552 -1.7212365 -0.3487828
-1.6050186 0.7798393 -0.10329986 0.47778732 -0.3489726 0.57352465 -1.0125637 4.017487
1.6333317 2.4737728 0.19537787 1.7150664 0.14853814 0.7834369 0.25077984 -1.10418
-2.248569 -0.06174867 -1.4419909 1.190996 -1.693918 -0.35592678 0.5263092 0.68184096
-1.2614506 0.12089842 -6.6890435 1.28028 1.596053 0.5629677 2.1765678 -2.4748485

model.capsule_0.attention_layer.attention_vector f4 [8]
00000000: 7aea b6be 3a12 49c0 84d0 2ebe ca7b b13d
00000010: 71c3 53bf 1e9c 6f3e 965c 97c2 cd3c 90c0
-0.35725766 -3.1417375 -0.1707173 0.08666189 -0.82720095 0.23399398 -75.68083 -4.507422

model.capsule_0.linear_prob.weight f4 [265, 8]
00000000: bc25 3abf 8714 32c1 46ec 90c0 916b d5c0
00000010: 14dc 8341 9823 6941 1a03 1540 7586 eb40
00000020: 0375 a040 4230 d4c1 3df3 7fc1 0306 0bc0
00000030: 821f d041 7620 7f41 2cd4 d3bf 21c4 9c40
00000040: 3514 8cc1 9a5f 8fc0 8698 1bc0 7568 19c1
00000050: 9830 6d3f ef78 dd3f 4761 bfbf 5d40 c340
00000060: c7de 8f40 7e2d bac1 b3d3 4dc1 d24a f1bf
00000070: 66d0 be41 9d4b 5941 21ef 4bc0 d2f4 8140
00000080: c524 b540 c8cf ffc1 9e5d 97c1 8bd9 16c0
00000090: 3082 f041 4a6c 8d41 7c64 2fbf b511 ec40
000000a0: 2cf4 a940 f717 f4c1 e442 8dc1 adf7 2dc0
000000b0: 49e4 e641 4661 8341 df4f 9abf 2803 b040
000000c0: 43e0 0c40 4c03 83c1 9549 1ec1 15f8 62c0
000000d0: b6f4 7b41 628c 3c41 df7b 313e 6d25 da40
000000e0: 5bd5 ac40 0d09 ecc1 115d 86c1 fa36 e5bf
000000f0: 0d88 f541 7912 5041 6bfa 63bf 06be a940
00000100: eb0b aa40 2e1f fbc1 d58a 4ac1 ee50 26c0
00000110: af30 0a42 33d7 6541 466f 34c0 bc37 c040
00000120: 60f5 e240 9c13 8ec1 a667 36c1 f38c 0ec0
00000130: 501c a941 72d2 5241 0c00 0640 8882 0441
00000140: 66ed bb40 e6e4 93c1 19ae 86c1 d3bc 73bf
00000150: f6df c341 e428 3a41 30a1 bf3e f873 ce40
00000160: a4f1 b640 e004 bbc1 7fc3 16c1 7645 27c0
00000170: bd6b c141 0064 6641 db26 73bf 6a81 be40
00000180: f07b 3540 3f1f 8fc1 4ac8 0fc1 f338 6dc0
00000190: 3caa 9341 4352 5541 cefd 7ebf b84e a040
000001a0: 033d 97be 9302 c5bd 6586 de3d 15c0 53bf
000001b0: a2a1 0bbe 1e47 8c3f 2af9 843f 9f66 493f
000001c0: 9554 be40 54d2 c8c1 e4a4 5dc1 c522 a3bf
000001d0: 5121 ca41 fd78 3241 4acd 9abf 18f6 ca40
000001e0: 6556 7540 0935 f0c1 d7ef 6fc1 32eb 92c0
000001f0: 2287 e841 9f97 7c41 fdea d8bf cafc 9c40
00000200: c6d6 9d40 e1db f4c1 8e77 75c1 e5cf 43c0
00000210: 0596 eb41 105d 7d41 6019 f0bf 8f09 b540
00000220: f3cc 9a40 370f f4c1 eb01 9ac1 68a1 52c0
00000230: 3360 e241 8365 5e41 c274 a9bf dd79 9f40
00000240: 92f0 8e40 9b12 d8c1 6642 6fc1 e092 7cc0
00000250: 7e60 d641 4b33 4e41 50d9 1bc0 46f7 9840
00000260: 461b 343f 5062 f4c0 5dc9 13c0 b663 99c0
00000270: cbee d140 df8b 8840 74fb 2340 1720 5741
00000280: f4ae 8740 8e40 d0c1 5a23 69c1 33ba b5bf
00000290: 8160 c141 4b8f 4341 e10b a2bf 49cf 6c40
000002a0: 3117 5540 f3a7 c1c1 d3af 8bc1 789c 6cc0
000002b0: 5cb9 c641 d8e5 8341 7d72 82bf 5c88 9940
000002c0: b9ce 7140 68a3 b0c1 4e24 63c1 70d1 29c0
000002d0: 1eb2 ac41 fa85 0a41 e45c e7bf 8198 8740
000002e0: d81c 4e40 e600 fcc1 a033 52c1 c597 92c0
000002f0: a619 0342 7f08 a041 d38e 83c0 d2bb 9d40
00000300: f831 9140 a9cc a5c1 340e 23c1 749a e0bf
00000310: 2ffe 9a41 cce3 2941 e97c 14c0 e28a 6c40
00000320: e12c a240 8e27 ddc1 e6c1 54c1 6b8d 4dc0
00000330: 513b ea41 3a68 b641 7ea9 3ec0 0632 bb40
00000340: 03e2 ca40 9297 efc1 a4d2 7cc1 9400 5ac0
00000350: d1ad f841 ba5f 9b41 7bf9 0ac0 5a58 c040
00000360: 3869 8640 ac27 f1c1 31b1 78c1 a657 aac0
00000370: 4244 e641 d005 8241 5f01 ebbf d470 bf40
00000380: 41d4 a240 510b 10c2 758c 8ac1 5dff 71c0
00000390: 1499 1742 75bd a941 73bb 3ac0 5677 b740
000003a0: f22f a340 5688 e1c1 c925 71c1 443d e7bf
000003b0: a30b d241 cbe8 5641 043e 39bf c38a 9a40
000003c0: 3d0e 9340 42b8 fcc1 b7a1 64c1 89f4 18c0
000003d0: d3c3 ec41 0151 6a41 575f cabf 5759 9340
000003e0: c3df 6d40 6cc8 7fc1 64ba 04c1 df94 c3be
000003f0: 8ad9 6f41 7b0a f640 3312 a6bf fc29 2140
-0.7271383 -11.130012 -4.528842 -6.6693807 16.48246 14.57119 2.3283143 7.360163
5.0142837 -26.523563 -15.996884 -2.172242 26.015385 15.945425 -1.6549125 4.8989415
-17.509867 -4.48042 -2.4311843 -9.588002 0.92652273 1.7302531 -1.4951562 6.101607
4.4959445 -23.272213 -12.864184 -1.8850958 23.851757 13.58096 -3.1864703 4.0611353
5.6607385 -31.976456 -18.920712 -2.3570278 30.063568 17.677876 -0.685127 7.3771615
5.311056 -30.511702 -17.657661 -2.718242 28.861467 16.422497 -1.2055625 5.5003853
2.2011878 -16.37661 -9.892964 -3.5463917 15.747244 11.784273 0.1733241 6.8170686
5.4010444 -29.50442 -16.795443 -1.7907403 30.691431 13.00451 -0.8905398 5.304446
5.313955 -31.390224 -12.658895 -2.5986896 34.547543 14.365039 -2.8192916 6.0068035
7.092453 -17.759575 -11.400305 -2.2273529 21.138824 13.176378 2.0937529 8.281868
5.8727293 -18.486767 -16.835009 -0.9521 24.484356 11.634983 0.37427664 6.4516563
5.716997 -23.37738 -9.422729 -2.6136146 24.177607 14.399414 -0.94981164 5.9532976
2.8356895 -17.890257 -8.986399 -3.706601 18.458122 13.332583 -0.99606025 5.009609
-0.29538736 -0.096196316 0.108654775 -0.8271497 -0.13635877 1.0959203 1.0388539 0.7867221
5.947825 -25.1027 -13.8527565 -1.2744986 25.266268 11.154538 -1.2093899 6.3425407
3.833398 -30.025896 -14.996055 -4.5912104 29.065983 15.787017 -1.6946713 4.905858
4.9324675 -30.607363 -15.341688 -3.0595639 29.448252 15.83522 -1.8757744 5.657417
4.837518 -30.50743 -19.250937 -3.2911015 28.296972 13.899783 -1.3238757 4.983626
4.4668665 -27.009085 -14.953711 -3.9464645 26.797115 12.887523 -2.4351387 4.7801847
0.70354116 -7.637001 -2.3091652 -4.7934217 6.5603995 4.267074 2.5622225 13.445334
4.2401066 -26.03152 -14.571131 -1.4197448 24.172121 12.222484 -1.2659875 3.7001517
3.3295405 -24.207006 -17.460852 -3.69705 24.840508 16.487228 -1.0191189 4.7978954
3.7782423 -22.079788 -14.196363 -2.653408 21.586971 8.657709 -1.8075223 4.237366
3.2205105 -31.500439 -13.137604 -4.5810266 32.775047 20.004148 -4.1111846 4.9291773
4.5373497 -20.724932 -10.190968 -1.7547135 19.374113 10.618114 -2.320124 3.6959767
5.0679784 -27.644314 -13.2973385 -3.2117565 29.278963 22.800892 -2.979095 5.8498564
6.3400893 -29.949009 -15.801426 -3.4062853 31.084871 19.421741 -2.171477 6.010785
4.200344 -30.144371 -15.54326 -5.3231993 28.783329 16.252838 -1.8359793 5.982523
5.08841 -36.01105 -17.318583 -3.7812111 37.89949 21.217508 -2.917691 5.7333174
5.0996027 -28.19157 -15.071725 -1.8065572 26.255682 13.431834 -0.72360253 4.8294387
4.595488 -31.58997 -14.289481 -2.3899252 29.595617 14.644776 -1.5810345 4.6046557
3.7167823 -15.986431 -8.295506 -0.38199517 14.99061 7.6887794 -1.2974304 2.5181875
